model/keypoint_classifier/keypoint_classifier.tflite (tflite, 6676 bytes, 6 tensors)

sequential/dense/BiasAdd/ReadVariableOp f4 [20]
000000 21 61 18 bf 5f 2e cd be 7f 46 aa bd 64 78 87 be
       -0.59523207 -0.4007444 -0.08314227 -0.26459038
000010 43 8a 6f bf 5b 1b 00 bf c2 c9 05 be 20 c5 9e 3d
       -0.93570346 -0.5004174 -0.13065246 0.07752442
000020 39 88 bb 3d 5e ed 56 be e6 0a 20 be dd 28 b3 be
       0.09156842 -0.20988986 -0.15629157 -0.34992114
000030 7f 3f e4 3e e0 2a 28 bf d9 72 cc be b2 95 f6 bd
       0.44579694 -0.6569042 -0.39931372 -0.12040271
000040 b9 42 4c be 24 f7 27 bf 93 40 2a bf 7b 79 91 bd
       -0.19947328 -0.6561148 -0.6650478 -0.07103249

sequential/dense_2/BiasAdd/ReadVariableOp f4 [7]
000000 4c 44 82 bf e3 fe 87 3f 8b 8e a6 3f 54 6b 0c bf
       -1.0177093 1.062466 1.3012251 -0.5485127
000010 34 b3 f9 be 0f 94 a1 be 50 5c ca bd
       -0.48769534 -0.31558272 -0.098808885

sequential/dense_1/BiasAdd/ReadVariableOp f4 [10]
000000 79 b0 09 3f 93 9b f3 bd 19 c2 ac 3d bc af 2f 3e
       0.537849 -0.11894908 0.08435459 0.17156881
000010 05 64 dc bd a4 14 97 3f 06 09 0c 3f 7f 4a 4a bf
       -0.10761265 1.1803174 0.5470127 -0.7901992
000020 fb 4c 67 3f b2 2d 98 3d
       0.9035184 0.07430591

sequential/dense/MatMul f4 [20, 42]
000000 e4 9c 07 3e 4b b2 8d be 83 3a a5 3e 99 4c a8 bf
       0.13243443 -0.2767509 0.32271203 -1.3148376
000010 37 bb 2e 3e 41 5c 22 bf b2 b7 d0 3e 0e e0 11 bf
       0.17063604 -0.6342202 0.40765148 -0.56982505
000020 96 f8 74 3e 0c 73 64 be e2 87 21 3e 54 c7 80 be
       0.23922953 -0.22309512 0.15774491 -0.25152075
000030 af 2b ce 3d 17 42 84 bd a5 a7 b8 3b 70 26 06 3e
       0.10066926 -0.06457918 0.005635219 0.131006
000040 fe a9 d4 bd 67 3c 3b 3e 94 81 b8 3e 36 61 20 be
       -0.10383986 0.1828476 0.3603636 -0.15662083
000050 10 7c 55 3e 9b fd 3c 3c 89 81 4a 3d 58 ee 49 3e
       0.20848107 0.011535074 0.04943994 0.19719827
000060 4e 36 e7 bd 56 2b 52 3e 84 15 d5 3e c4 04 a5 bc
       -0.11289655 0.20524344 0.41617978 -0.020143874
000070 c0 a7 8e 3e d5 73 90 3d b8 f4 34 bd b5 8a 34 3e
       0.27862358 0.07053343 -0.044178694 0.17631038
000080 c9 07 d4 be b4 0a dd 3d 83 be 20 3e 66 18 78 bd
       -0.4141219 0.10793057 0.15697674 -0.060570143
000090 4a a3 1e 3e 6c ad 41 3d ae bc 08 3d 47 ec 17 3e
       0.15491977 0.04728453 0.033383064 0.14836226
0000a0 24 68 aa be e9 f9 03 3e 1e c4 8e bd 3e b5 ab bd
       -0.33282578 0.12888302 -0.06971 -0.083841786
0000b0 86 68 aa bf 57 d9 da be fa 69 20 bf a0 c4 73 be
       -1.3313148 -0.42743942 -0.6266171 -0.23805475
0000c0 e3 51 8b 3d 0a e2 b5 be fa 9d 6b 3e 2b a8 18 be
       0.06802728 -0.35524017 0.23009482 -0.14907901
0000d0 06 0e 4c be 65 49 b9 be d3 ea 04 bf 6b 44 cc bd
       -0.19927225 -0.36188808 -0.51920813 -0.09973987
0000e0 03 b4 b1 be 12 89 07 3e 73 ac ac be 85 fe 7a 3e
       -0.3470765 0.13235882 -0.33725318 0.24511154
0000f0 19 cc da 3c 12 23 be be 28 2c 25 be 13 5d f1 bd
       0.02670865 -0.37136132 -0.16130126 -0.117853306
000100 57 72 58 be 02 34 2e 3e f2 f3 69 be e5 02 80 3e
       -0.21137367 0.17012027 -0.22846964 0.25002208
000110 41 99 a2 3e d1 4c de be 42 33 49 3d 93 27 7d be
       0.31757548 -0.4341798 0.04912115 -0.24722128
000120 63 f9 9d 3d 63 20 08 3e 3d 10 00 3d 2d 82 43 3e
       0.07713582 0.13293605 0.031265486 0.19092627
000130 c1 0e 8e 3e 98 94 e6 be 40 a7 4a 3e 3e 45 cd be
       0.2774563 -0.45035243 0.19790363 -0.4009189
000140 07 52 7f 3e f1 84 dd 3d e6 83 33 3e 51 66 22 3e
       0.24933635 0.10816372 0.17530784 0.15859343
000150 f0 19 18 3d 74 b1 5e be 9d ab 17 40 88 4b 09 3f
       0.03713411 -0.2174738 2.3698494 0.53630877
000160 3f 62 d6 3f 35 fa 35 3e 09 08 ab 3e 06 71 b9 bd
       1.6748732 0.17771228 0.33404568 -0.09054761
000170 75 99 22 be 47 51 d9 3d 9b 33 97 3f c0 38 c3 3d
       -0.15878852 0.106112055 1.1812624 0.095323086
000180 d3 ed 16 3f de 85 ed bd 95 16 5e 3e 49 07 05 3e
       0.5895664 -0.11597799 0.21688302 0.1299106
000190 1e c3 aa 3c 7c 0b f4 3d d1 6f 7f 3e f3 e9 78 3d
       0.020844992 0.11916253 0.24944998 0.060769986
0001a0 44 61 44 3e 89 36 b0 bd 4b 50 0a 3e 88 f4 3e 3e
       0.19177729 -0.08604152 0.13507192 0.18647969
0001b0 24 4a 13 3d 7f f8 03 3e 47 5c ed be 21 c8 84 be
       0.035959378 0.12887762 -0.46359465 -0.25933936
0001c0 7f 6d 19 be ea fa 32 be d6 a0 d6 bd 33 2a a1 3d
       -0.14983176 -0.17478529 -0.10479896 0.07869377
0001d0 bc ca 86 be 22 23 c5 3b 21 b7 32 bf f5 cb da be
       -0.2632655 0.006016151 -0.6981068 -0.42733732
0001e0 d7 86 c2 be 66 dc c8 be 76 7a 0c be 9a b5 d0 bd
       -0.379935 -0.3923065 -0.1371859 -0.10190888
0001f0 5c e4 64 be 47 7b 47 bd 20 68 9c 3e 12 3d 0a 3e
       -0.22352737 -0.04870155 0.3054819 0.13499859
000200 99 8e 3a 3f d6 c6 7e bf 8c 66 db 3c c2 2c a6 be
       0.72873837 -0.9952215 0.026782297 -0.32456023
000210 fd 7b 18 bd c1 63 ae be 43 5a ee 3d f6 25 9b be
       -0.03722762 -0.3406048 0.1163831 -0.303024
000220 76 67 62 be 9f 91 dd 3d 05 a2 1c bd 46 66 60 bd
       -0.2210978 0.10818791 -0.03824045 -0.054785036
000230 d0 27 60 be 9c 1c c1 bd 10 7d 85 be e3 ee 74 bd
       -0.21890187 -0.09429285 -0.26071978 -0.059798133
000240 1e 16 b7 be ad 26 94 3e 7a 46 68 be dd dc 57 3e
       -0.35759062 0.28935757 -0.22683135 0.21080346
000250 d9 4e a0 be 74 6e cd bb af 66 73 be 60 e3 89 3b
       -0.31310156 -0.0062692706 -0.2376964 0.0042080134
000260 05 29 b7 be f4 63 10 3f de 30 4a be 33 71 9f 3e
       -0.35773483 0.56402516 -0.19745204 0.31141052
000270 b0 96 0a 3d 86 7b 06 3e 90 bd 57 3e 5d ba 11 bd
       0.033835113 0.13133058 0.21068406 -0.03557812
000280 6b 6e 67 bc 01 a9 4c 3f 8c 6e 9b bd 1a aa c0 3e
       -0.014125447 0.7994538 -0.075894445 0.37629777
000290 52 4c 01 3e 55 36 af 3d e6 e9 80 3e a6 77 07 3e
       0.1262677 0.08555285 0.2517845 0.13229236
0002a0 70 d9 d8 3d 0e 15 4e be c0 10 1a 3f f5 0d 63 3e
       0.10588348 -0.20125219 0.6018181 0.22173293
0002b0 d7 1f b4 3e 8b ab dc bd c8 ee 0d 3f 24 c3 38 bd
       0.35180542 -0.10774907 0.55442476 -0.045107976
0002c0 39 97 24 3f a6 50 a3 bd 54 7a 42 3e de b7 07 bd
       0.6429325 -0.07974367 0.18991977 -0.033134334
0002d0 1a 83 17 3e 2d be 9e bc c4 9e 96 3d 8a ef 85 3d
       0.14796105 -0.019377792 0.07354501 0.06539829
0002e0 b3 e8 c0 bc f1 28 9e 3d b9 24 2c 3e ba 86 8f bc
       -0.02354846 0.07722653 0.16810884 -0.017520297
0002f0 bb 48 d6 bc e1 0e ac 3c 2c 1f e3 bd f9 9b e8 3d
       -0.026157727 0.021003189 -0.1108993 0.113578744
000300 bb ba 1b be d1 28 cb 3d cf 84 30 be 3c b3 be bc
       -0.15207951 0.099198945 -0.17238162 -0.023278825
000310 07 39 ef 3b ca f6 07 bc 72 82 8e bd 8b 94 84 bd
       0.0073004994 -0.008298585 -0.06958474 -0.06473645
000320 54 69 41 3b 16 fd 96 be 31 64 64 be 8e 8f 1a bd
       0.0029512243 -0.29489964 -0.22303845 -0.03773456
000330 4f 7a 99 be 8f dc 12 be 05 db c5 be 38 f2 85 be
       -0.29976127 -0.14341949 -0.3864366 -0.2616136
000340 30 57 f2 be 03 12 e7 be d0 3c 6f 3d 90 20 14 bd
       -0.47332144 -0.4513093 0.058407605 -0.036163867
000350 80 ab b3 bf c4 62 b2 3e e6 40 12 bf e5 0f 0a 3e
       -1.4036713 0.34840977 -0.5713028 0.13482626
000360 63 ef b7 bd cf 05 c5 3d 5a 10 c0 3e 94 5b a1 3c
       -0.08981206 0.096202485 0.37512475 0.019696988
000370 1c 3f 9b be 87 c2 e6 3a 4d d8 36 be 7e 9e fe 3b
       -0.30321586 0.0017605581 -0.1785595 0.0077703586
000380 90 2b 21 be 2b df cc bc 91 64 d9 bd 56 73 2b 3d
       -0.15739274 -0.025008759 -0.10614885 0.04185804
000390 6b 12 dd 3c 83 b2 27 3d 3a c2 56 bd b2 86 a1 3c
       0.026986321 0.040941726 -0.052431323 0.019717548
0003a0 c9 7c 12 be 4a 69 15 3d 66 a6 21 be 18 1c 00 3e
       -0.14305414 0.036477365 -0.15786132 0.12510717
0003b0 c5 84 c3 3e 83 76 e1 bd 4c 80 03 3e 45 55 00 be
       0.38187233 -0.110089324 0.1284191 -0.12532528
0003c0 e7 b0 ba 3d 28 9f bf be 37 74 e9 bd 60 f8 08 bf
       0.09115773 -0.37426114 -0.11399119 -0.5350399
0003d0 ec 84 f0 3e f1 70 e5 3d 71 a2 3e 3e d5 1d e0 bd
       0.4697641 0.112031825 0.18616654 -0.1094319
0003e0 fb 4b 15 3e d6 a8 3c bf 8d 49 4a 3d b5 83 37 bf
       0.14579765 -0.73695123 0.04938655 -0.71685344
0003f0 35 9d 88 be 61 e7 0c be 06 43 7d bf 75 b9 2c bf
       -0.2668244 -0.13760139 -0.98930395 -0.67470485

sequential/dense_1/MatMul f4 [10, 20]
000000 66 a4 91 3f d0 d1 2e 3e 76 54 f7 3e d8 11 89 3e
       1.1378295 0.17072225 0.48306626 0.26771426
000010 5b 3f f9 3d 9c 08 06 bf d4 d0 1a 3f a6 fb b7 3d
       0.12170287 -0.52356887 0.60474896 0.08983545
000020 7d 8c bf bd 0f a9 2d 3e 50 6c 32 bf 0f fd b1 bc
       -0.09352968 0.16959022 -0.6969652 -0.021727113
000030 f3 fc 42 3d f1 73 a8 3e dd 2b 8b bf 96 19 93 3e
       0.047604512 0.32900956 -1.0872761 0.28730458
000040 0e ce 4d 3f 66 e9 65 3e 0f 56 86 3d c1 64 24 3f
       0.8039254 0.22452316 0.06559383 0.6421624
000050 c8 b7 3c 3e e5 2f 73 3e 89 a4 29 3e e2 7d b4 be
       0.18429482 0.23748739 0.16566671 -0.3525229
000060 12 83 33 3f 42 39 7a 3f 73 c0 ad 3d d0 41 29 3f
       0.7012187 0.9774362 0.084839724 0.66116047
000070 36 cd 77 3f 9f 15 6a 3e ab 6b 92 3f 97 6f 72 3f
       0.967975 0.2285981 1.1439108 0.9470152
000080 7a df d6 3e 67 fd d3 3e 58 09 cf 3f d2 0b b8 be
       0.41967374 0.41404268 1.6174726 -0.35946518
000090 f8 2a 94 bb 1f 55 fc 3d f7 20 a3 3f 57 bb 63 3e
       -0.004521724 0.12320923 1.2744435 0.22239433
0000a0 36 8c 9d bd 43 43 9a 3e 0e 98 0a bf f2 5f 25 bf
       -0.07692759 0.30129442 -0.5413827 -0.64599526
0000b0 f5 c4 6e be 4d 24 63 3e f8 64 12 3f d8 10 80 3e
       -0.2331732 0.22181816 0.57185316 0.2501285
0000c0 16 d9 d3 bc 55 60 41 3c 44 ed 39 3f 00 fb 15 3f
       -0.02586035 0.0118027525 0.72627664 0.5858612
0000d0 e6 e1 5c 3f 34 f3 67 bf cc d6 10 3e a0 c8 d8 be
       0.86282194 -0.90605474 0.14144439 -0.42340565
0000e0 ca 9a 94 be ea 98 1d bf 8e 86 8f 3d 90 5d 4e 3f
       -0.29024345 -0.61561453 0.07008086 0.80611515
0000f0 c9 47 01 3f 6e 69 88 bd 8b 08 97 3e aa 25 61 be
       0.5050016 -0.06660734 0.29498705 -0.21987024
000100 31 7c 82 3e 51 eb 56 3e 48 3e 13 be df 46 43 bc
       0.25485376 0.20988204 -0.14379227 -0.011918752
000110 0c 90 c1 3e ff e4 57 3d e3 5d 8f 3d a5 99 88 bc
       0.37805212 0.052708622 0.07000329 -0.016674826
000120 ee 98 8d bd ba 9f 62 3f b1 a3 86 3e 8d 20 22 be
       -0.06913935 0.88524973 0.26296762 -0.1583273
000130 b3 10 c0 3d b7 5b 88 3f a6 8d b5 3d 2c 2f c6 3c
       0.09378185 1.0652989 0.08864908 0.024192415
000140 c3 5e 80 be 0f 01 4c 3e 40 40 ea be f0 5d 24 3f
       -0.25072297 0.19922279 -0.45752144 0.6420584
000150 47 4d 0b be f0 e0 c3 bd fd 94 73 3d ef f0 3e bf
       -0.13603698 -0.09564388 0.05946826 -0.74586385
000160 31 19 59 3f 89 59 f2 3e b6 73 a9 be ee 79 31 be
       0.84804064 0.47333935 -0.33096093 -0.17331669
000170 5b 7a bc 3e 49 4b 45 3f 35 fb 29 bd 5c a6 2b 3f
       0.368121 0.77068 -0.041499335 0.6705072
000180 7d 0f 95 be 7e e3 29 bd 2a d4 21 bc bf 06 87 bf
       -0.2911338 -0.04147672 -0.009877244 -1.0548934
000190 fa 4a 5c bf 49 28 17 3e 5d 97 bd bd 92 e6 eb 3e
       -0.86051905 0.14761461 -0.09257386 0.4607435
0001a0 20 98 c0 be d4 aa 61 bf 57 c2 01 3f ec dc 26 be
       -0.37616062 -0.8815129 0.50687164 -0.16295213
0001b0 60 35 44 3e 48 c1 fa 3e 4c 36 e8 3d fe 23 9b be
       0.19160986 0.48975587 0.11338481 -0.30300897
0001c0 fe 54 2b 3f 13 96 0a 3e d0 8d 97 be 99 26 9b 3e
       0.6692656 0.13533811 -0.29600382 0.30302885
0001d0 61 79 22 bf 0e 43 25 bd 2d b0 5e be ce e7 e0 bd
       -0.6346646 -0.04034715 -0.21746893 -0.10981713
0001e0 4f 2e 1b be a7 28 d4 be ad 52 5a 3f c2 f3 b9 3d
       -0.15154384 -0.41437265 0.85282403 0.09079696
0001f0 19 82 83 3f 14 9d 77 be 21 e7 37 bf 44 a3 84 3e
       1.0274078 -0.24181014 -0.7183705 0.25905812
000200 d4 d9 0a 3e 89 ab ad 3f db 4a b6 3e 30 bc 85 bf
       0.13559657 1.3567973 0.35603985 -1.0448055
000210 9e 04 de bd 94 0e d8 3e e7 62 ca be ea 3b 47 3e
       -0.108407244 0.42198622 -0.39528582 0.19456449
000220 55 f4 8c 3c 02 c7 15 3f 80 06 53 3e 9e e9 dd bd
       0.01720635 0.58506787 0.20607948 -0.108355746
000230 dd db 55 3e 3f fa 02 3e 74 66 8b 3e b0 e8 d5 3e
       0.20884652 0.12790774 0.27226603 0.4177909
000240 28 aa 94 3f 32 7b 5b 3e e0 b5 e6 3b 58 27 8f 3e
       1.1614428 0.21433714 0.007040724 0.27959704
000250 0a 61 f8 3e d2 ef cb 3e cd 20 0c be f1 cb 3d bd
       0.48511535 0.39831406 -0.13684388 -0.04633707
000260 54 01 64 bf bd 60 b2 3e d2 9f b5 3e 13 c2 19 3f
       -0.89064527 0.3483943 0.35473496 0.6006176
000270 e9 b7 11 3e 04 d9 3e 3e 78 65 94 3e 27 88 39 bd
       0.14230312 0.18637472 0.28983665 -0.04529586
000280 30 0b 39 3e 8d 23 b8 bd 43 db aa 3c ff 27 f2 3c
       0.18070674 -0.08991156 0.020856505 0.029560087
000290 df a6 a4 3e 5e 1e 67 3e 34 d4 6a 3d 51 15 31 be
       0.32158563 0.22570178 0.05733128 -0.17293288
0002a0 c0 b8 9b bf 9c 92 39 3e 34 cc ab 3d 72 2e 0b 3e
       -1.2165756 0.18122333 0.08388558 0.13591936
0002b0 b6 00 66 be eb 50 f4 3d 42 4a 40 3f 4d b1 4c bc
       -0.22461209 0.119294964 0.7511331 -0.012493444
0002c0 ee 06 3f bd d0 ca 92 3d 52 a4 26 3d 84 4c 86 bf
       -0.046637468 0.0716759 0.04068405 -1.0492101
0002d0 87 31 aa 3e 16 6b ad 3f 78 be 0d bf 14 1b 15 3f
       0.3324091 1.3548305 -0.5536876 0.5824444
0002e0 bb 0b 40 3b 07 ea ac 3e 1e cb 42 3f 3c 86 64 3f
       0.0029303867 0.337723 0.7609118 0.89267325
0002f0 62 dd 8b 3d e9 e2 25 3e 03 38 7b be b7 d6 28 3f
       0.06829335 0.1619984 -0.24533086 0.6595263
000300 7c 8f 08 3f c5 97 a4 3e 6e 05 a1 3d d4 7f 8d 3f
       0.5334394 0.3214704 0.07862364 1.1054635
000310 42 44 0e 3e 0f d8 f2 3d d0 32 9e 3e 71 66 8b 3d
       0.13893226 0.11857616 0.30898142 0.068066485

sequential/dense_2/MatMul f4 [7, 10]
000000 77 a8 d7 3e bb 3d 3e 3e 41 da c3 be bd c5 85 be
       0.42120716 0.18578236 -0.38252452 -0.26127425
000010 0d bf 04 bf 9b 23 75 bf 5c fe 1d 3f 22 d9 82 3f
       -0.5185402 -0.95757455 0.61716247 1.0222514
000020 8e d2 41 bf 94 81 21 3f 61 8c 9f 3c d2 f0 b4 3e
       -0.75711906 0.63088346 0.019476118 0.3533998
000030 cf a9 8a bf 4b f6 d7 3d 24 67 44 bf 5a 4f a7 3f
       -1.0833071 0.105450235 -0.7671988 1.3071091
000040 d1 7f 1d 3f 7e a5 9b bf e4 aa f1 bf e7 2f 80 bf
       0.6152316 -1.2159879 -1.8880277 -1.0014619
000050 10 71 a5 3f 93 2e ad bf 17 d9 5e be f7 d5 78 be
       1.2925129 -1.3529838 -0.217625 -0.24300371
000060 c2 d4 b9 bf d8 d3 c9 be b7 2f 0e be bc dd d3 be
       -1.4518054 -0.39419436 -0.1388539 -0.41380107
000070 0e a6 1e 3f b5 95 87 bf a6 84 c0 bd 1a 6d 27 bf
       0.6197213 -1.0592562 -0.09400301 -0.6540085
000080 02 11 fc be 59 8e 39 bf b7 87 a5 3f 4d cf 68 3f
       -0.49231726 -0.7248283 1.2932042 0.90941316
000090 53 90 eb be 69 03 ad bd 42 dd bb be 31 2c ac 3e
       -0.46008548 -0.08447916 -0.36692244 0.33627465
0000a0 52 d1 98 bf 61 e7 e2 3e 6d 44 37 bf 4e 1f 14 3e
       -1.193888 0.44317153 -0.71588784 0.14465067
0000b0 b3 06 74 3d 60 5f 3a bf c8 12 12 3f 5a b5 44 3f
       0.0595767 -0.7280178 0.5705991 0.7683922
0000c0 45 2d 85 3f 3e 2c c3 bf 2e 29 c9 3d 98 65 40 3f
       1.040444 -1.5247877 0.098223075 0.7515502
0000d0 7b 1b b5 be 52 99 c5 3e c6 62 4d bf eb 8b 7f bd
       -0.35372528 0.38593537 -0.8022884 -0.062389296
0000e0 7b f6 7d bf 07 4e 84 be 87 3a 40 be 6d 6d 16 3f
       -0.99204224 -0.2584078 -0.18772326 0.5876072
0000f0 e0 ae c7 be 46 11 2c 3f ad b9 18 3f 85 58 91 bf
       -0.39000607 0.6721386 0.5965832 -1.1355139
000100 7a 7a 2b 3e 18 3a bb be 05 09 6d bf 3d 55 24 3f
       0.1674594 -0.3656776 -0.9259189 0.64192563
000110 a9 f0 ef 3e 26 a0 8f 3d
       0.46863297 0.07012968
