model/keypoint_classifier/keypoint_classifier.tflite (tflite, 6808 bytes, 6 tensors)

sequential/dense/BiasAdd/ReadVariableOp f4 [20]
-0.028309135 0.16298164 -0.4237171 0.0663391 -0.09779058 -0.24463093 -0.3100894 0.32454842
0.078609325 -0.16112202 0.07965389 -0.15070438 -0.76808035 -0.45687732 0.7072823 0.13193578
-0.74608195 0.12419355 -0.09435466 0.03832883
00000000: 8fe8 e7bc a9e4 263e 73f1 d8be cbdc 873d
00000010: 6d46 c8bd 8880 7abe 0ac4 9ebe 362b a63e
00000020: edfd a03d 2cfd 24be 9421 a33d 4052 1abe
00000030: eaa0 44bf d3eb e9be 7410 353f 2c1a 073e
00000040: 3aff 3ebf 3059 fe3d 043d c1bd b1fe 1c3d

sequential/dense_2/BiasAdd/ReadVariableOp f4 [10]
-1.0424469 0.89686996 0.37328967 0.6623512 -0.4371214 -0.7905576 -0.5821473 0.2751197
0.42017087 0.46897328
00000000: e66e 85bf 4599 653f d31f bf3e d98f 293f
00000010: 60ce dfbe fc61 4abf 9b07 15bf 7ddc 8c3e
00000020: a320 d73e 441d f03e

sequential/dense_1/BiasAdd/ReadVariableOp f4 [10]
0.03288222 0.325725 1.3540133 1.3709999 0.15539628 0.6713597 -0.15756974 0.28051722
0.5702951 -0.6212631
00000000: 82af 063d 6dc5 a63e 4f50 ad3f ed7c af3f
00000010: 3420 1f3e 3bde 2b3f f659 21be f49f 8f3e
00000020: dcfe 113f 190b 1fbf

sequential/dense/MatMul f4 [20, 42]
0.01354748 -0.1676272 1.8664258 0.75278157 1.0349627 0.45183003 0.50892645 0.3428269
0.13954645 0.43979162 0.6364125 0.13148025 0.40443352 0.0115674045 0.12499719 0.06471814
-0.19686823 0.12136095 -0.03355352 0.060784984 0.044131797 -0.1554051 -0.30050495 -0.1056781
-0.501277 -0.2593847 -0.3580697 -0.09492737 -0.09395688 -0.19017401 0.04003769 -0.4183074
0.08151312 -1.0343196 -0.5302768 -0.19239935 -0.3770374 -0.24781382 -0.3193781 -0.17465459
-0.43735522 -0.14992465 0.18733844 -0.13675986 -0.3061306 0.09162918 -0.375361 0.31469133
-0.26581064 0.2949011 -0.100240365 0.26517493 -0.28003228 0.21926235 0.047882326 0.13802406
0.32623044 0.052481066 0.4766396 -0.00555147 -0.15190768 0.23314196 0.08100619 0.056571588
0.48865902 -0.58849436 0.6552272 -0.8059646 -0.1365202 0.26379824 0.04343901 0.10564281
0.16342373 -0.28339142 0.17390032 -0.39100358 -0.0487224 0.31671464 -0.23940003 0.16608438
-0.29708534 0.0062463144 -0.48193175 0.046925522 -0.26136395 -0.018354714 2.1926694 0.5115655
0.971933 0.13481678 0.19803053 0.037136726 -0.1557042 0.029987613 0.43558946 0.120948166
0.25412112 -0.02316844 0.11426349 -0.28199992 0.031447668 -1.1878836 -0.027649064 0.117129005
0.0040852423 0.044681516 0.036152367 0.044428546 -0.01631122 0.03279366 -0.22113563 0.077479795
-0.109657995 0.107780576 -0.08737167 0.2259538 -0.32037985 0.24660681 -0.30528402 -0.16236469
0.07663282 0.02497195 0.15792044 0.27231142 0.1088403 0.3754049 0.1475755 -0.059909135
0.45315382 -1.3055897 0.28843072 -0.82149017 0.18498391 -0.48106748 -0.10343971 -0.05906202
0.54208153 -0.45143634 0.4387839 -0.24305503 -0.02203374 0.08899042 -0.2256847 0.32208946
0.8434106 -0.11519811 0.4498422 -0.12406396 0.1121787 0.1253143 -0.12245304 0.23821254
1.205416 -0.04392438 0.73429877 0.055932272 0.23943011 0.27930164 -0.41104716 0.36239648
0.691684 0.09039806 0.6082579 0.1890013 0.56241757 0.4158519 -0.054338656 0.48643804
-0.18540251 0.27717835 0.040239833 -0.15839483 -0.23675215 0.05963568 -0.48389557 0.08163852
-0.6567146 0.08444283 -0.0714224 0.22765923 0.118977726 0.076594524 0.34091085 -0.0056207986
0.466304 -0.015030407 -0.14590643 0.2671825 0.14036328 0.043214463 0.4918992 -0.38998446
0.51530504 -0.5852615 -0.182829 0.31423172 -0.14829412 0.06074567 0.11458868 0.05594547
0.034687538 0.067328826 -0.2288063 0.29307747 -0.09354674 0.10960525 0.071694106 0.12525421
0.17035472 0.16309054 -0.1816524 -0.019479841 -0.46842277 -0.8455255 0.03211576 -0.30005378
0.44541073 -0.10384714 0.4689349 -0.21339147 -0.114167474 -0.5012665 -0.13665925 0.0018236868
0.040558472 0.35251352 0.10205198 0.47360507 0.2393706 -0.5981356 0.027923135 -0.04050544
0.08759183 0.26133743 0.10748453 0.32483932 0.33153084 -0.64192873 -0.011735543 -0.20894206
-0.10882115 -0.04919117 -0.21324827 0.11331995 0.41542375 -0.5846686 -0.066304855 -0.10313617
-0.3986116 0.1922826 -0.5115571 0.33458978 0.2465123 0.18426135 0.48727205 -0.4127051
00000000: 40f6 5d3c 77a6 2bbe 0ae7 ee3f 4bb6 403f
00000010: a879 843f 4456 e73e 0149 023f 0287 af3e
00000020: 44e5 0e3e 5e2c e13e eeeb 223f c2a2 063e
00000030: e911 cf3e 3685 3d3c 87fe ff3d f28a 843d
00000040: d397 49be 178c f83d 6a6f 09bd adf9 783d
00000050: 8bc3 343d 8422 1fbe c9db 99be c26d d8bd
00000060: b153 00bf 12ce 84be e954 b7be 4869 c2bd
00000070: 776c c0bd fabc 42be 90fe 233d 632c d6be
00000080: 5af0 a63d 9664 84bf 38c0 07bf 5604 45be
00000090: 0c0b c1be e8c2 7dbe 8785 a3be a7d8 32be
000000a0: 06ed dfbe d985 19be a6d5 3f3e c70a 0cbe
000000b0: 26bd 9cbe 14a8 bb3d 512f c0be 391f a13e
000000c0: 5518 88be 47fd 963e d24a cdbd 02c5 873e
000000d0: 6460 8fbe 4f86 603e 4220 443d 2e56 0d3e
000000e0: ad07 a73e 63f6 563d 1b0a f43e 1be9 b5bb
000000f0: b08d 1bbe c4bc 6e3e 93e6 a53d 9cb7 673d
00000100: 8431 fa3e 91a7 16bf f8bc 273f b253 4ebf
00000110: f4cb 0bbe 9010 873e 1aed 313d 425b d83d
00000120: 8d58 273e ae18 91be ed12 323e 9f31 c8be
00000130: 2491 47bd 6c28 a23e 4825 75be 0612 2a3e
00000140: 921b 98be e2ad cc3b c2bf f6be fa34 403d
00000150: 7fd1 85be a05c 96bc b254 0c40 f5f5 023f
00000160: 9ad0 783f 690d 0a3e 84c8 4a3e ae1c 183d
00000170: ec70 1fbe 95a8 f53c 9505 df3e acb3 f73d
00000180: 2a1c 823e becb bdbc fa02 ea3d 4b62 90be
00000190: 45cf 003d 920c 98bf 4a80 e2bc 55e1 ef3d
000001a0: 7fdd 853b f703 373d 8114 143d b5fa 353d
000001b0: 1c9f 85bc a552 063d 6171 62be baad 9e3d
000001c0: 5f94 e0bd 10bc dc3d ebef b2bd 6f60 673e
000001d0: d408 a4be 7f86 7c3e 304e 9cbe ee42 26be
000001e0: abf1 9c3d fa91 cc3c e5b5 213e 676c 8b3e
000001f0: aae7 de3d 1235 c03e 081e 173e 4863 75bd
00000200: c703 e83e 901d a7bf 31ad 933e 2e4d 52bf
00000210: 6c6c 3d3e 7a4e f6be 33d8 d3bd 04eb 71bd
00000220: dbc5 0a3f aa22 e7be 49a8 e03e 6be3 78be
00000230: 1a80 b4bc 9c40 b63d e419 67be e9e8 a43e
00000240: c2e9 573f fdec ebbd b851 e63e 3f15 febd
00000250: f2bd e53d 6452 003e a9c8 fabd fded 733e
00000260: 124b 9a3f 0dea 33bd 01fb 3b3f 3d19 653d
00000270: 2b2d 753e a000 8f3e c674 d2be 088c b93e
00000280: 3412 313f 9e22 b93d cab6 1b3f 8f89 413e
00000290: 99fa 0f3f 8aea d43e 3692 5ebd 680e f93e
000002a0: 28da 3dbe 52ea 8d3e 86d2 243d 4132 22be
000002b0: 286f 72be 8b44 743d 29c1 f7be 1932 a73d
000002c0: 731e 28bf 5df0 ac3d e845 92bd 801f 693e
000002d0: 98aa f33d 97dd 9c3d de8b ae3e ad2e b8bb
000002e0: 66bf ee3e 1942 76bc 7f68 15be 25cc 883e
000002f0: 64bb 0f3e a601 313d 36da fb3e 0bac c7be
00000300: 08eb 033f b3d3 15bf 8637 3bbe fbe2 a03e
00000310: 6ada 17be 74d0 783d 78ad ea3d 1427 653d
00000320: 8514 0e3d b2e3 893d 334c 6abe 400e 963e
00000330: 6f95 bfbd b878 e03d 5cd4 923d a442 003e
00000340: 7871 2e3e 3501 273e 1603 3abe 3094 9fbc
00000350: 1cd5 efbe 5c74 58bf d18b 033d a6a0 99be
00000360: e00c e43e cfad d4bd 3c18 f03e 4b83 5abe
00000370: a3d0 e9bd 0053 00bf 67f0 0bbe c608 ef3a
00000380: a420 263d a77c b43e a100 d13d 5d7c f23e
00000390: 911d 753e 6a1f 19bf 0fbf e43c 08e9 25bd
000003a0: 5863 b33d 05ce 853e d920 dc3d 5751 a63e
000003b0: 69be a93e 7155 24bf 6f46 40bc e8f4 55be
000003c0: a0dd debd ae7c 49bd c15d 5abe 4a14 e83d
000003d0: 6cb2 d43e d7ac 15bf d7ca 87bd 0e39 d3bd
000003e0: d216 ccbe bbe5 443e 68f5 02bf 5a4f ab3e
000003f0: b86d 7c3e 02af 3c3e b97b f93e 154e d3be

sequential/dense_1/MatMul f4 [10, 20]
0.9976189 1.0566095 -0.33260965 -0.03390529 0.12398106 0.19971961 -0.07795109 -0.12225485
0.87264186 1.0544112 0.6101265 0.0033935448 0.70948094 -0.013126182 0.0647129 0.48686242
0.89803344 0.14337166 0.6763178 0.004287403 0.16658932 -0.010261516 0.21650448 0.73593044
0.46072093 0.08572704 -0.7370648 0.5414713 0.74845415 0.043968324 0.014567436 0.7222033
0.26571295 0.36147633 1.0408126 0.1999799 0.26309937 1.2641802 0.76308346 0.3305228
0.23020366 0.77403736 1.280526 0.074625894 0.13802418 -0.045471195 0.44334537 -0.9308154
-1.5880829 3.540999e-05 0.45716178 0.22101445 0.32039356 -0.13567065 -0.09167314 -1.5504516
0.37336108 -0.30049795 -0.9646279 0.20465162 0.38082045 -0.37121803 -0.089029446 -0.10760238
-0.9901895 0.047870792 0.6573061 0.52335584 0.19951534 0.16550419 -1.1741024 -0.21261556
-0.11852539 -0.7967967 0.46818256 -0.17429629 -0.1323294 -0.028227761 0.5454859 0.19698791
-0.6381407 0.15049389 -0.23215121 0.16909489 -0.66004455 0.21718739 0.2314422 0.14069998
0.8761457 0.40322846 -0.6032649 0.18572488 0.64699894 0.51219666 0.19972174 0.8916454
0.6759166 0.40820584 0.54342276 0.7962385 0.17285419 -0.3375982 0.44513866 0.29383758
-1.0117911 0.361484 0.60304725 -0.119575776 0.2620452 -0.062120803 -0.06814578 0.44551787
0.12876064 0.50519985 0.5554912 -0.45244926 0.035079584 0.38958633 0.09877601 -0.13239674
0.14523475 0.5861974 0.17718123 0.8727774 0.7445499 0.58026767 0.12823574 0.16090311
0.09918487 -0.6933048 0.48718524 1.0637392 0.008992533 1.422248 0.07800899 0.3035432
0.0773318 0.16529013 0.1020794 1.6456245 0.35056716 0.34387308 0.45601365 0.1275956
0.33379635 -0.80891013 0.6269656 0.7578556 0.24742252 0.37590852 -0.1530603 0.29155988
-0.28367397 -0.62522143 0.682499 0.1819919 -0.011181281 0.20768522 0.15858163 0.13001639
0.5006695 0.52544886 -0.2275851 0.31047857 -0.18252267 0.9601426 0.7364978 0.35237107
-0.18854472 0.45047224 0.22904238 0.0659715 0.12704764 0.81093806 0.17221911 0.1789979
-0.042768814 -0.049954377 -0.021950856 0.36535946 0.7830025 -0.058316316 1.0141138 0.07266304
-0.62056214 0.5608065 0.44958574 0.33607742 0.68136907 0.07867193 0.76253265 -0.04964339
1.1096381 0.23476845 0.023670895 0.57427925 0.79111916 0.058510754 0.7053185 -0.057918217
00000000: f463 7f3f fb3e 873f d04b aabe 46e0 0abd
00000010: c8e9 fd3d 4c83 4c3e d2a4 9fbd c060 fabd
00000020: 7565 5f3f f2f6 863f 4031 1c3f 3c66 5e3b
00000030: 8ba0 353f 330f 57bc 3288 843d 0846 f93e
00000040: 85e5 653f 05d0 123e 2a23 2d3f 587d 8c3b
00000050: 6496 2a3e eb1f 28bc 5ab3 5d3e f065 3c3f
00000060: 9de3 eb3e a991 af3d 47b0 3cbf dd9d 0a3f
00000070: b19a 3f3f 2118 343d 41ac 6e3c 51e2 383f
00000080: 870b 883e 6d13 b93e 5939 853f 88c7 4c3e
00000090: f6b4 863e a8d0 a13f 7059 433f 493a a93e
000000a0: 82ba 6b3e 5027 463f 47e8 a33f 76d5 983d
000000b0: 3656 0d3e 0140 3abd 2afe e23e eb49 6ebf
000000c0: 4d46 cbbf 3085 1438 1c11 ea3e 9d51 623e
000000d0: a00a a43e 3fed 0abe 21bf bbbd 3375 c6bf
000000e0: 2f29 bf3e deda 99be dbf1 76bf 3290 513e
000000f0: e6fa c23e 4a10 bebe 1255 b6bd a35e dcbd
00000100: 0f7d 7dbf 2a14 443d 3645 283f a6fa 053f
00000110: c04d 4c3e ee79 293e fd48 96bf e5b7 59be
00000120: 71bd f2bd defa 4bbf a0b5 ef3e ba7a 32be
00000130: 5c81 07be e83d e7bc f7a4 0b3f 33b7 493e
00000140: 305d 23bf 121b 1a3e 0cb9 6dbe 3627 2d3e
00000150: aef8 28bf 5f66 5e3e 2fff 6c3e a813 103e
00000160: 164b 603f f673 ce3e 926f 1abf aa2e 3e3e
00000170: b9a1 253f 521f 033f db83 4c3e df42 643f
00000180: df08 2d3f 5b00 d13e c11d 0b3f 49d6 4b3f
00000190: b000 313e acd9 acbe 37e9 e33e e171 963e
000001a0: 5f82 81bf 6e14 b93e 4e61 1a3f 25e4 f4bd
000001b0: ca2a 863e 6272 7ebd 0490 8bbd eb1a e43e
000001c0: d4d9 033e c754 013f ac34 0e3f 6ea7 e7be
000001d0: 9caf 0f3d dc77 c73e 144b ca3d 0393 07be
000001e0: 6bb8 143e 0811 163f ff6e 353e 576e 5f3f
000001f0: d29a 3e3f 6c8c 143f 3b50 033e c9c3 243e
00000200: 7021 cb3d 6c7c 31bf 5870 f93e 9b28 883f
00000210: 6b55 133c 390c b63f 2dc3 9f3d 046a 9b3e
00000220: 2260 9e3d d141 293e 010f d13d d3a3 d23f
00000230: 8a7d b33e 2210 b03e 9f7a e93e 6ca8 023e
00000240: 5be7 aa3e bc14 4fbf d180 203f d302 423f
00000250: 545c 7d3e 1577 c03e d7bb 1cbe 5647 953e
00000260: b73d 91be 830e 20bf 41b8 2e3f 165c 3a3e
00000270: b131 37bc 6fab 543e 3963 223e 0423 053e
00000280: e02b 003f d183 063f 120c 69be 0cf7 9e3e
00000290: 39e7 3abe e8cb 753f 1f8b 3c3f fb69 b43e
000002a0: de11 41be 4ca4 e63e 168a 6a3e 111c 873d
000002b0: c718 023e a399 4f3f 355a 303e 3a4b 373e
000002c0: 5a2e 2fbd f69c 4cbd 48d2 b3bc 6510 bb3e
000002d0: da72 483f 17dd 6ebd 7bce 813f 5cd0 943d
000002e0: 29dd 1ebf 0491 0f3f 1a30 e63e 5712 ac3e
000002f0: 346e 2e3f c01e a13d 5735 433f de56 4bbd
00000300: 9f08 8e3f 2467 703e 77e9 c13c f703 133f
00000310: c986 4a3f f9a8 6f3d c18f 343f a73b 6dbd

sequential/dense_2/MatMul f4 [10, 10]
-0.029082516 -0.30578512 -0.35556248 -0.25039634 -0.12959623 0.5931543 0.3632336 0.02935838
-0.23589176 0.89137554 0.33204415 0.74115425 0.715499 -0.81098557 -1.058042 0.080300674
-0.68877804 -0.0263446 -0.10247823 -0.31759468 -0.7413218 -0.02108451 0.8625106 -0.88214755
-0.59229636 -0.515914 0.54677165 -0.69627744 0.4948411 -0.81919205 -0.28006244 -0.38573396
0.06771005 1.0151473 -1.001142 -0.0029589678 -1.627916 1.0208268 0.12000212 -0.98315775
0.3139195 -1.1820363 0.8171266 -0.12262374 -0.113201044 -0.4830315 -0.95928806 -0.30257562
0.3158821 0.4410417 0.22673936 0.43251222 -0.6939154 -0.028135609 0.6204883 -0.40561098
0.021451501 -0.07403866 0.39275828 -0.08938786 0.7406197 0.35111138 -1.1550667 -0.19782902
0.20078328 -0.7290939 0.4949325 0.7645454 -0.6039641 -0.25929454 0.66851056 -1.064021
0.20167688 -0.012937606 -0.06344737 -0.940055 -0.4945882 -0.7307004 0.41403395 0.2857311
-1.8161185 -0.39809427 -0.8328123 0.5629537 0.5584755 0.6081939 0.2597695 0.00096284924
0.8382896 -1.7610203 -0.006825647 0.3416724 -0.6312808 0.6539441 0.86735195 0.3810981
-1.2018602 -0.5005056 -1.2519346 -0.06917061
00000000: 753e eebc de8f 9cbe 490c b6be f333 80be
00000010: e0b4 04be f6d8 173f c1f9 b93e fc80 f03c
00000020: 9c8d 71be 3031 643f b101 aa3e 49bc 3d3f
00000030: f12a 373f c09c 4fbf ec6d 87bf ae74 a43d
00000040: c253 30bf a1d0 d7bc 1be0 d1bd c59b a2be
00000050: 44c7 3dbf 6cb9 acbc 7fcd 5c3f 6cd4 61bf
00000060: bca0 17bf f112 04bf 3af9 0b3f 3d3f 32bf
00000070: d05b fd3e 92b6 51bf 5864 8fbe ec7e c5be
00000080: 91ab 8a3d 59f0 813f 6c25 80bf 3eeb 41bb
00000090: 8d5f d0bf 74aa 823f acc3 f53d 3ab0 7bbf
000000a0: 0fba a03e f74c 97bf 352f 513f 2822 fbbd
000000b0: f3d5 e7bd e84f f7be e793 75bf 31eb 9abe
000000c0: 4cbb a13e 38d0 e13e 5d2e 683e 3e72 dd3e
000000d0: 71a4 31bf a67c e6bc 52d8 1e3f 3eac cfbe
000000e0: 0fbb af3c 95a1 97bd 9d17 c93e fb10 b7bd
000000f0: 4199 3d3f dfc4 b33e 3ad9 93bf b193 4abe
00000100: 229a 4d3e e6a5 3abf cb67 fd3e 3fb9 433f
00000110: 649d 1abf 41c2 84be 8223 2b3f d731 88bf
00000120: 6284 4e3e 41f8 53bc b2f0 81bd 72a7 70bf
00000130: aa3a fdbe 2e0f 3bbf 42fc d33e 594b 923e
00000140: 9276 e8bf 03d3 cbbe 3033 55bf bc1d 103f
00000150: 40f8 0e3f 98b2 1b3f 8200 853e b867 7c3a
00000160: 269a 563f 1d69 e1bf ada9 dfbb afef ae3e
00000170: 9e9b 21bf e168 273f c70a 5e3f 4a1f c33e
00000180: 8ed6 99bf 2321 00bf 653f a0bf 52a9 8dbd
