model/keypoint_classifier/keypoint_classifier.tflite (tflite, 6720 bytes, 6 tensors)

sequential/dense/BiasAdd/ReadVariableOp f4 [20]
0.28465253 -0.7100828 -0.7610375 -0.31333393 -0.54048413 -0.7780959 -0.13853532 -0.9055181
0.09831773 -0.9050443 0.13425931 0.080134675 -0.759626 -0.074654534 -0.106209226 -0.72266006
-0.098517306 0.10049173 -0.010859638 0.0512925
00000000: fabd 913e fdc7 35bf 5bd3 42bf 4e6d a0be
00000010: 2b5d 0abf 4b31 47bf 34dc 0dbe 09d0 67bf
00000020: ce5a c93d fcb0 67bf 467b 093e a61d a43d
00000030: d976 42bf 7ae4 98bd 3984 d9bd 4000 39bf
00000040: 71c3 c9bd 9cce cd3d a0ec 31bc 1618 523d

sequential/dense_2/BiasAdd/ReadVariableOp f4 [8]
-0.9156925 1.2183509 -0.22959988 0.15616277 -0.0036190455 -0.68264824 0.16965142 0.16380468
00000000: d36a 6abf ecf2 9b3f 3b1c 6bbe 22e9 1f3e
00000010: 822d 6dbb 09c2 2ebf 1ab9 2d3e 6abc 273e

sequential/dense_1/BiasAdd/ReadVariableOp f4 [10]
-0.22267008 0.21562852 -0.32174265 1.2453405 0.006662284 0.67391145 -0.057972535 0.8304293
-0.16040863 0.1966568
00000000: a003 64be b9cd 5c3e 74bb a4be 5167 9f3f
00000010: 4a4f da3b 7685 2c3f 9c74 6dbd 0497 543f
00000020: 2942 24be 6660 493e

sequential/dense/MatMul f4 [20, 42]
-0.18334322 -0.10027212 0.08563288 -0.4045827 0.0056946585 -0.2845768 -0.074576326 -0.30374226
-0.31694996 -0.22917518 0.9628954 0.029273907 0.8924236 -0.074389964 0.50264835 0.032323897
0.34407616 -0.024105 0.8326594 0.027396962 0.84883296 -0.06065304 0.28234726 0.00062773196
-0.06898111 0.11024242 0.4511763 0.12712726 0.1871618 0.08266292 0.3343245 0.31740293
-0.11711475 0.39674598 0.04430282 0.085349135 -0.29430518 0.109239936 0.1707489 0.27183354
0.1928399 0.52718043 0.08800465 0.19500625 0.5902075 0.1263992 0.48414826 -0.19772783
0.4966575 -0.10492018 0.44774908 -0.19241098 0.7351872 -0.35089126 -0.077245444 -0.3027938
-0.46743792 0.001273246 -0.56068903 0.10765901 0.26640975 -0.15280569 0.0063947323 -0.048585683
-0.34201416 0.17365722 -0.35830984 0.19954042 0.32208544 -0.2905079 -5.8659905e-05 -0.10088851
-0.1867015 0.10138278 0.1499188 0.10302949 0.26082757 -0.09826251 -0.19513935 -0.115045816
-0.06986776 0.04469252 0.17663309 0.09783432 0.20774728 -0.22714889 -0.34590203 -0.9506738
-0.13587938 -0.46103188 -0.086097054 -0.37629923 -0.006097495 -0.25242957 0.58247346 -0.13450003
-0.14756797 0.037328154 -0.42578444 0.11606342 -0.55288345 0.11035052 0.68666965 -0.07582437
-0.18339181 0.0079612 -0.13006806 -0.11442574 0.14141099 -0.013602476 0.530943 -0.005918265
-0.2835445 -0.029589131 -0.32416117 0.053815413 -0.08481994 0.095683426 0.6479349 0.0070745205
-0.19579168 0.077294454 -0.21260925 0.08047642 0.13782053 0.061858192 0.10708547 -0.2997709
0.6146181 0.09207426 0.67160237 0.020603936 0.53162146 0.053156234 0.8116507 0.10994054
-0.112659834 0.064397894 0.061172366 0.0879183 0.00026151296 0.15047403 -0.09768035 0.118105434
-0.035403278 -0.010324044 0.25964138 0.036065385 0.45798516 0.20254281 0.6537134 0.2431702
-0.16058402 0.01425607 0.29024 -0.08966405 0.79558957 0.15742198 0.4559438 0.17523359
-0.14734788 -0.11489869 0.6144554 -0.24624637 0.86217827 0.08467062 0.5779095 0.088643245
0.026905537 0.29167598 -0.6626876 -1.1740665 -0.31300223 -0.34531882 -0.16020077 -0.1981706
0.07102518 -0.1500761 -0.50327814 -0.06900563 -0.2177552 -0.041704345 -0.0815718 -0.19174007
0.20420495 -0.1835088 -0.07897129 -0.05582475 0.104479454 -0.04724107 -0.025782907 0.05337662
-0.32497635 0.16015033 0.4652918 -0.08542401 0.42958146 -0.069476105 0.32034364 0.008749474
0.29940218 -4.7272162e-05 1.0078717 -0.022959016 1.0359558 -0.23886722 1.160894 -0.24783148
1.2665379 0.0057102446 0.21670157 -0.29255086 1.0125299 0.40625575 0.79413134 0.31975123
0.66952986 0.23470178 0.554855 -0.039160598 0.6239582 0.01421946 0.12074502 0.20255685
-0.0014098248 0.07272006 -0.11543152 0.08325984 0.42093498 -0.083630614 0.13640855 0.06770922
-0.08179602 0.1826757 -0.052260343 0.2575164 0.12522568 0.0047328454 0.1349008 -0.16905487
-0.16118449 -0.35186148 -0.28141093 -0.70989734 -0.514838 -0.31448328 -0.21002342 -0.33597538
-0.5368557 -0.5171365 -0.5176446 -0.73358846 -0.25552282 -0.11493383 0.6549015 0.25788015
00000000: 53be 3bbe 785b cdbd 4b60 af3d 7725 cfbe
00000010: 429a ba3b 0db4 91be 79bb 98bd 1b84 9bbe
00000020: 4447 a2be e6ac 6abe 5080 763f d5cf ef3c
00000030: e075 643f c459 98bd 90ad 003f 1066 043d
00000040: c02a b03e d977 c5bc 2b29 553f 986f e03c
00000050: 1e4d 593f 526f 78bd d28f 903e 618e 243a
00000060: f845 8dbd c7c6 e13d 9400 e73e a62d 023e
00000070: 58a7 3f3e 2d4b a93d 952c ab3e a382 a23e
00000080: dcd9 efbd 4a22 cb3e e076 353d 87cb ae3d
00000090: 2baf 96be 30b9 df3d cdd8 2e3e c42d 8b3e
000000a0: d377 453e 4cf5 063f c83b b43d b8af 473e
000000b0: d717 173f cb6e 013e 48e2 f73e 2a79 4abe
000000c0: e449 fe3e 64e0 d6bd 5e3f e53e 6207 45be
000000d0: 3a35 3c3f 05a8 b3be dc32 9ebd ca07 9bbe
000000e0: 0654 efbe 0ce3 a63a 5189 0fbf 547c dc3d
000000f0: dc66 883e 1879 1cbe e78a d13b c801 47bd
00000100: 7b1c afbe 33d3 313e 6374 b7be 5354 4c3e
00000110: 62e8 a43e 74bd 94be 9809 76b8 a39e cebd
00000120: ae2e 3fbe c6a1 cf3d 5084 193e 2001 d33d
00000130: 318b 853e db3d c9bd 9cd2 47be 249d ebbd
00000140: d416 8fbd 810f 373d 4edf 343e 5c5d c83d
00000150: b4bb 543e b899 68be 121a b1be 5c5f 73bf
00000160: f723 0bbe 5f0c ecbe a753 b0bd 4baa c0be
00000170: 7fcd c7bb 733e 81be fb1c 153f 60ba 09be
00000180: 0f1c 17be 68e5 183d 6b00 dabe a9b2 ed3d
00000190: c589 0dbf 74ff e13d 95c9 2f3f cf49 9bbd
000001a0: 10cb 3bbe b16f 023c 9030 05be 0b58 eabd
000001b0: 0bce 103e ebdc 5ebc e1eb 073f 01ee c1bb
000001c0: bf2c 91be e864 f2bc 74f8 a5be 8d6d 5c3d
000001d0: 14b6 adbd acf5 c33d 10df 253f 61d1 e73b
000001e0: 9d7d 48be 8e4c 9e3d 3db6 59be d2d0 a43d
000001f0: d320 0d3e 045f 7d3d a04f db3d 927b 99be
00000200: 9d57 1d3f 6e91 bc3d 22ee 2b3f 96c9 a83c
00000210: 5818 083f 5aba 593d 57c8 4f3f 8128 e13d
00000220: 33ba e6bd 0be3 833d e08f 7a3d 820e b43d
00000230: ad1b 8939 dd15 1a3e a30c c8bd 43e1 f13d
00000240: 0703 11bd 2e26 29bc b7ef 843e 4cb9 133d
00000250: 087d ea3e 6267 4f3e c359 273f 9c01 793e
00000260: 2370 24be 4b92 693c 569a 943e c9a1 b7bd
00000270: c2ab 4b3f 3a33 213e 7771 e93e 6f70 333e
00000280: 5de2 16be 0150 ebbd f34c 1d3f 0228 7cbe
00000290: b7b7 5c3f ca67 ad3d e1f1 133f 978a b53d
000002a0: 0069 dc3c 8e56 953e e5a5 29bf d047 96bf
000002b0: d441 a0be a1cd b0be ac0b 24be 3ced 4abe
000002c0: a675 913d 8dad 19be d6d6 00bf d352 8dbd
000002d0: 38fb 5ebe 2dd2 2abd 1e0f a7bd 8257 44be
000002e0: 1a1b 513e bbe9 3bbe b3bb a1bd 7ea8 64bd
000002f0: 53f9 d53d da7f 41bd ad36 d3bc 71a1 5a3d
00000300: 4d63 a6be 73fe 233e ba3a ee3e c9f2 aebd
00000310: 1af2 db3e 7d49 8ebd 1504 a43e f459 0f3c
00000320: 3e4b 993e 1946 46b8 f101 813f 8c14 bcbc
00000330: 339a 843f 9c99 74be 2d98 943f 89c7 7dbe
00000340: ea1d a23f 011d bb3b 04e7 5d3e 3ac9 95be
00000350: 949a 813f c100 d03e 314c 4b3f 6fb6 a33e
00000360: 4f66 2b3f aa55 703e fa0a 0e3f dd66 20bd
00000370: b9bb 1f3f bdf8 683c 2a49 f73d 106b 4f3e
00000380: dfc9 b8ba 41ee 943d 5c67 ecbd 2384 aa3d
00000390: ca84 d73e 8746 abbd afae 0b3e 22ab 8a3d
000003a0: ac84 a7bd 570f 3b3e f10e 56bd 31d9 833e
000003b0: 293b 003e fc15 9b3b 6f23 0a3e b81c 2dbe
000003c0: 8c0d 25be 3027 b4be 1815 90be d5bb 35bf
000003d0: 6ccc 03bf f403 a1be 6110 57be f704 acbe
000003e0: 606f 09bf 0f63 04bf 5b84 04bf 74cc 3bbf
000003f0: e3d3 82be 6e62 ebbd a0a7 273f de08 843e

sequential/dense_1/MatMul f4 [10, 20]
-0.6280325 0.33532715 0.42186472 -1.0536376 0.40508336 0.2589079 0.56694716 0.5129264
-0.03146339 0.40499213 -0.08587409 -0.1943391 0.49937132 0.11520589 0.5256518 -0.28179756
0.63268524 0.17730294 0.4884845 -0.11380784 -0.530177 0.034235936 0.01356344 -0.44891703
-0.03835964 -0.4272556 0.5902848 -0.12194151 -0.6222286 0.24937646 0.22568205 -0.20306127
0.3729502 0.6011375 0.5366637 -0.5653355 0.09594337 0.59416103 0.2827343 1.1667603
0.038478103 0.23367326 0.33961388 -0.116856866 -0.14827082 -0.73880553 0.56325495 -0.20290576
0.7295495 0.50196743 -0.11816317 0.777455 0.21318829 -0.06386625 0.05554315 0.51325864
0.07576112 -0.04196909 -0.059047226 -0.063241154 -0.084536605 0.34998822 -0.36708972 -0.32905376
-1.0479368 0.3838943 1.1605034 0.1798284 0.028864337 0.40573972 -1.2456577 -0.8995048
-1.2367156 0.30877954 -0.72805023 -0.03748623 -0.9503575 -0.20304818 0.2971544 -0.7039343
0.29430717 0.39715713 0.4107971 0.13183945 -0.6443906 0.0018089856 0.19973288 -0.1636807
-0.21861894 0.019872233 0.1474874 0.19588032 0.28961247 0.4453002 -0.013892221 0.59277934
0.24871609 0.35817796 0.5551743 0.4553139 0.42680827 0.18114832 -1.837475 0.81994957
0.0388697 0.10359518 0.07712097 0.39672625 0.881642 0.13302673 0.2918888 0.5603498
-0.26301014 -0.2548456 -0.32720694 0.3871728 -0.2448629 -0.186409 -0.27229494 -0.34342226
0.11845484 1.0419436 0.28389552 0.58033526 0.038158886 1.0073943 0.6972073 1.0248591
-0.6811114 0.7084598 -0.081598066 0.23745796 0.18853624 0.010275831 0.04815832 1.1177554
0.0799513 -0.7956492 -0.07784462 -1.3084322 0.591452 -0.30669868 -0.39264536 -0.4236497
0.23365898 0.20194331 -0.1548026 -0.13096026 -0.72481745 0.45099896 0.3855587 0.19504987
0.15108876 -0.059205953 0.32548103 -0.3670155 0.38973042 0.7275769 0.051481128 1.1160289
0.19393723 0.13091166 0.19998577 0.8048904 0.49710134 0.23197357 -0.17277424 -0.0040769493
0.6247406 0.12678657 0.75329256 0.9484414 0.23707733 -1.2544755 0.18010841 0.26474652
0.15544806 -0.047258426 -1.1817825 -0.29059964 -0.0058128913 0.30799475 0.618548 -0.069916315
0.75720745 0.005358636 -0.5665407 0.80874604 -0.8366416 0.5159169 0.2448486 0.34649563
1.042402 0.447717 0.75376636 0.0075529506 1.2459748 0.16958375 0.21208423 0.47472683
00000000: bdc6 20bf 00b0 ab3e a7fe d73e 99dd 86bf
00000010: 1667 cf3e 948f 843e 7323 113f 254f 033f
00000020: c1df 00bd 215b cf3e c1de afbd d400 47be
00000030: 99ad ff3e 11f1 eb3d 1e91 063f c547 90be
00000040: a9f7 213f e78e 353e a41a fa3e 1614 e9bd
00000050: aeb9 07bf fb3a 0c3d 3139 5e3c 74d8 e5be
00000060: ff1e 1dbd 3fc1 dabe e81c 173f 78bc f9bd
00000070: 604a 1fbf 8b5c 7f3e 3219 673e 4bef 4fbe
00000080: 54f3 be3e 26e4 193f cb62 093f d4b9 10bf
00000090: f57d c43d f01a 183f 8dc2 903e 6758 953f
000000a0: 379b 1d3d 0b48 6f3e dfe1 ad3e a752 efbd
000000b0: 4ed4 17be 5c22 3dbf 7a31 103f 87c6 4fbe
000000c0: c2c3 3a3f f080 003f 88ff f1bd 4a07 473f
000000d0: 084e 5a3e 4fcc 82bd 3781 633d eb64 033f
000000e0: a528 9b3d c8e7 2bbd 81db 71bd 9484 81bd
000000f0: 8721 adbd a831 b33e 2ff3 bbbe bc79 a8be
00000100: cb22 86bf cb8d c43e 608b 943f f024 383e
00000110: e774 ec3c 1ebd cf3e b671 9fbf f245 66bf
00000120: b24c 9ebf 5a18 9e3e 8061 3abf 298b 19bd
00000130: a14a 73bf ddeb 4fbe 9f24 983e 0a35 34bf
00000140: 6eaf 963e 2e58 cb3e ff53 d23e ec00 073e
00000150: c8f6 24bf 7c1b ed3a c786 4c3e ea9b 27be
00000160: a5dd 5fbe 18cb a23c f006 173e da94 483e
00000170: 1648 943e 63fe e33e 339c 63bc 63c0 173f
00000180: 6eaf 7e3e 1a63 b73e e71f 0e3f e71e e93e
00000190: 9d86 da3e f27e 393e 6132 ebbf 37e8 513f
000001a0: d635 1f3d b629 d43d 99f1 9d3d b41f cb3e
000001b0: 4ab3 613f 2938 083e 7372 953e 1673 0f3f
000001c0: 44a9 86be 1f7b 82be ab87 a7be 833b c63e
000001d0: 57bd 7abe 00e2 3ebe 3e6a 8bbe 0bd5 afbe
000001e0: 7398 f23d 685e 853f c15a 913e da90 143f
000001f0: 7e4c 1c3d 4cf2 803f 2d7c 323f 952e 833f
00000200: 515d 2ebf 9f5d 353f e31c a7bd 2e28 733e
00000210: a50f 413e f65b 283c a941 453d 9c12 8f3f
00000220: 82bd a33d aaaf 4bbf 006d 9fbd b57a a7bf
00000230: 6669 173f 9c07 9dbe d008 c9be 9de8 d8be
00000240: 4d44 6f3e 3aca 4e3e 9384 1ebe 721a 06be
00000250: a38d 39bf 56e9 e63e f367 c53e 27bb 473e
00000260: 03b7 1a3e f181 72bd 73a5 a63e 75e9 bbbe
00000270: bf8a c73e 7b42 3a3f e0dd 523d 09da 8e3f
00000280: 7b97 463e b50d 063e 12c9 4c3e 4c0d 4e3f
00000290: 1184 fe3e 7b8a 6d3e bbeb 30be ee97 85bb
000002a0: 00ef 1f3f 57d4 013e c8d7 403f 0ecd 723f
000002b0: 66c4 723e a792 a0bf 576e 383e db8c 873e
000002c0: c72d 1f3e 0d92 41bd a644 97bf 7ac9 94be
000002d0: 117a bebb 7db1 9d3e 2959 1e3f 4930 8fbd
000002e0: 59d8 413f 7f97 af3b d008 11bf fb09 4f3f
000002f0: 252e 56bf 2113 043f 97b9 7a3e e067 b13e
00000300: 6e6d 853f 2a3b e53e d5f6 403f be7e f73b
00000310: 1a7c 9f3f 5da7 2d3e 9c2c 593e 650f f33e

sequential/dense_2/MatMul f4 [8, 10]
-0.663527 -0.7913141 0.53096503 0.12117316 0.2307331 0.443617 0.7899222 -0.5411665
-0.4198153 -0.42009667 -1.2855304 -0.9596075 -1.3122804 0.68021184 -1.6792687 0.6535016
-0.23091316 0.40341234 -1.9326445 -0.39381933 -0.5531482 -0.29764876 0.76924485 -1.1324832
-0.5675747 0.9076997 -0.9999575 -0.38959962 0.8141412 -0.5459841 -0.06284371 0.54137695
0.38872886 1.0687518 -0.046683304 -1.6143315 -0.42609915 -1.150731 0.08788715 -0.65400237
0.23766908 -0.15000468 0.28574717 0.7734163 -1.7966516 -0.14860404 0.40236083 0.064143516
-1.0451369 -0.98557097 0.6900926 0.4784374 0.36820582 -0.5713426 -0.62036234 -1.0773662
-0.012873239 -0.47905383 -1.1762329 0.45784438 -0.29711306 0.5149817 -0.46464407 -0.8184022
0.38241145 -1.0320174 -0.70366293 0.89593863 0.13897027 0.23317555 -0.30605754 -0.21477883
-0.050329387 -0.85564256 0.5829658 -0.36247757 0.47928002 -0.29070798 0.6946152 0.33073536
00000000: e8dc 29bf 9093 4abf 53ed 073f a229 f83d
00000010: 4c45 6c3e c421 e33e 5738 4a3f e389 0abf
00000020: 08f2 d6be e916 d7be 438c a4bf d6a8 75bf
00000030: cef8 a7bf 5d22 2e3f 47f2 d6bf e14b 273f
00000040: 8074 6cbe 108c ce3e e560 f7bf b0a2 c9be
00000050: 1f9b 0dbf 6b65 98be 3bed 443f 36f5 90bf
00000060: 934c 11bf 025f 683f 37fd 7fbf 9a79 c7be
00000070: 8f6b 503f 9dc5 0bbf 34b4 80bd ae97 0a3f
00000080: 7807 c73e dccc 883f fe36 3fbd 6aa2 cebf
00000090: ab29 dabe 274b 93bf 2efe b33d b36c 27bf
000000a0: 865f 733e d49a 19be 744d 923e 9cfe 453f
000000b0: aef8 e5bf a82b 18be 3d02 ce3e ad5d 833d
000000c0: 0cc7 85bf 614e 7cbf e9a9 303f bff5 f43e
000000d0: 7985 bc3e 8243 12bf 11d0 1ebf 23e7 89bf
000000e0: 47ea 52bc 8b46 f5be cd8e 96bf 946a ea3e
000000f0: 341f 98be d7d5 033f d4e5 edbe ce82 51bf
00000100: 6fcb c33e 2519 84bf 4123 34bf 3c5c 653f
00000110: 394e 0e3e 92c5 6e3e 93b3 9cbe fbee 5bbe
00000120: 3026 4ebd 640b 5bbf 3f3d 153f a996 b9be
00000130: 3164 f53e add7 94be 4dd2 313f 2556 a93e
