Hand Detection App/model/keypoint_classifier/keypoint_classifier.tflite (tflite, 6896 bytes, 6 tensors)

sequential/dense/BiasAdd/ReadVariableOp f4 [20]
00000000: ac9c d53e 7da1 313e 7c02 24bf af5e 21be
00000010: aa65 a2bc 4a97 313e 2525 4c3e 2278 0abf
00000020: 3db3 b13d 3fc4 603e cf62 1ebf 0ca9 8a3c
00000030: d5ca 6dbe 7972 61bf d8a2 eb3e db23 81bf
00000040: ac0a 693f 40c2 cfbd b869 373e ccee e1be
0.41721094 0.17346759 -0.6406629 -0.15758775 -0.019823868 0.17342868 0.19936045 -0.5408956
0.08676765 0.21949862 -0.6186952 0.016926311 -0.23221906 -0.88065296 0.46022677 -1.0089067
0.9103191 -0.10144472 0.17911422 -0.441275

sequential/dense_2/BiasAdd/ReadVariableOp f4 [12]
00000000: 3beb 683e 9b1a 6e3d 7747 603e 02ad 8f3d
00000010: 779f 09bf 6163 cbbd 398f 553f 2a6f c3be
00000020: 14cd 29bf a534 0f3e 5f60 2ebe 2e0f 7ebd
0.22745983 0.05813084 0.21902262 0.070154205 -0.5375895 -0.099310644 0.83421665 -0.3817075
-0.6632855 0.13984926 -0.1702895 -0.062026195

sequential/dense_1/BiasAdd/ReadVariableOp f4 [10]
00000000: 8ceb d53e 96f1 13bf 7345 0b3f 0fe6 ffbe
00000010: 6e99 d33e 05cd c93e b1e3 583f 9801 373f
00000020: 673d 9c3f 0c89 4e3f
0.4178127 -0.57790506 0.54402846 -0.49980208 0.41327995 0.3941423 0.8472243 0.71486807
1.2206239 0.80677867

sequential/dense/MatMul f4 [20, 42]
00000000: 70f1 dd3c 450b 83be 551a c63e ba1f 55bf
00000010: ba0f 813e bf0c bcbe 0541 5b3f ceb0 95be
00000020: 04b4 053f d79a 58bd 95e0 d93e 9fd7 42bd
00000030: d2b4 c63e 020e 1e3a 1589 023e abde 20be
00000040: b96e 903c e64d e6bd bc54 5dbd ae57 0d3d
00000050: d09f 043f 2148 ed3d 41f1 5d3f a20c bb3e
00000060: 61af 283f 1549 c73e eecd 40be c932 47bc
00000070: ce32 42be 4db2 703e fc7d 74bb e82b d13e
00000080: 51e4 9a3e 7e71 c63e 1b25 48bc 54d8 c03d
00000090: aa7c 8ebe 760c a13e 8b52 97bd 2c7c cf3e
000000a0: de69 3c3d 4293 073f 10c6 4b3e 801e e3bc
000000b0: f4f7 19be b68a 0d3f 5cea 01be d7bd dc3e
000000c0: c123 86be 7fbd 123f e86d 69be 7797 093f
000000d0: 2d76 cebe 482f 083e 4458 2abe 741d 073e
000000e0: d3e3 d2bd 8a41 6bbb ac46 94be 3ca0 5fbe
000000f0: 62ee 87be 18da 133e a54d fbbd f9b3 9b3e
00000100: 7168 e3be 0eec 7b3e f9be 2ebf 2581 323e
00000110: 6fb2 08bf 27fd 173e be8f 84be 2c89 a33e
00000120: 8e0e a9be 4cd2 e63d 9935 1cbf 5f45 723c
00000130: a9a3 81bf 9078 703d b64e 55bf 5f25 8d3e
00000140: d2b8 21bf 701b 963e 84ef 36bf 7c7d 3c3e
00000150: ae6b 55be d466 e33d e010 c1be b6e0 463e
00000160: 73a8 c3be bfc6 aebd 135b e1be a6d6 37bc
00000170: 1524 b1be 1683 4a3c 8d64 22bf 854a 92be
00000180: 9ddd f1be aa64 46be de5f e0be f91b 173e
00000190: 799e a7be a07c 633e 1527 d9be 665a 64be
000001a0: 05cc edbe 6b53 b7bd 65bd e0bd 5cb3 bf3e
000001b0: 5964 aa3e 6b49 c83e efb1 f43d 7db3 9fbe
000001c0: 5c40 e13d ca01 0fbe 0601 c3bd 5f65 543e
000001d0: 5a9a 713e 0dce 833e 212b da3e fcf3 12bf
000001e0: ec78 00be 7f38 39be 4843 563e 9213 4b3e
000001f0: 4c17 b13e 9807 1b3e 1c44 763e 04bf a73d
00000200: 5b66 cbbe b723 a13f 1d3e a8be a964 b03e
00000210: a585 b1be 73cf 5e3e d96d a7be 63ba af3e
00000220: 1f23 42bf b58f f53d 84b8 a53b 9854 89bc
00000230: ef79 6a3e 15b1 e1bc 40b5 8f3e 5c39 aebc
00000240: a7d8 86bf fdbd dd3d 296e 4f3d 5e59 6c39
00000250: 623d 18be 0db5 3abe 05c9 9cbe b944 64be
00000260: b34f 4ebf e44b 453c 13cc 8a3e 8f01 cfbd
00000270: 2cb0 c23e a897 a3be faa5 f9bd 3103 2dbf
00000280: 1020 cabe be7a 753d bf58 9b3e b169 8b3d
00000290: 2f14 863f 0b66 0fbe ae37 9b3f 2f23 bebd
000002a0: 50e5 e3bc 54cd 803e 35b7 b6bc f045 623e
000002b0: a7b6 9c3d eaa8 8b3c e164 9cbd 9ec8 7ebd
000002c0: 186b 28bd 6184 afbd 4345 5bbe 66dd 283d
000002d0: c7a8 d3bc bfcb 173d a340 103e b917 f73d
000002e0: 3ba8 403e c315 233e 4b4a d3be 9ab3 823d
000002f0: 93b0 84bd 2f43 88bc adca b9be ab9f 80be
00000300: c010 63bf 4f79 38bf 46c9 4dbf 93f5 db3d
00000310: 35e4 443e b5b3 cc3c f32a b43e 5adf 95bd
00000320: a068 39be 3e43 07be be7b bbbe 0503 e23d
00000330: 0832 d43e fd6b ca3d 1f29 5f3f 2fc8 4c3e
00000340: fbf4 a03f 0731 813e 7888 12bd 9030 86bc
00000350: 9c81 063e b740 1ebe aff9 4c3f 5d1e 91be
00000360: a844 4e3f 7bdd 7abe e221 a43f e033 9abe
00000370: aa48 b83e 530f 16be 516d 24bc aba1 afbc
00000380: 5577 a8bc 0a85 08bd 995d 48bd 5de0 f7bc
00000390: 614d 453d 3951 de3d 7bda ce3e 2c04 593e
000003a0: 53b2 f03e a703 b73e 5066 7e3f 017b 9b3e
000003b0: c149 f8bd 36b1 0b3e 76a4 36be 3e56 f63d
000003c0: 8f30 583e b0c6 453e a4ac a13d 4fbb 433e
000003d0: 2980 a1be 7aa2 f03d b06b 0ebf 363b 563e
000003e0: 84ae 11bf d735 373e 4cf9 69be 0ca3 fd3d
000003f0: e00c 6f3e 4051 9bbc 4177 783f 68dd e5be
0.027092665 -0.25594535 0.38691965 -0.83251536 0.2520731 -0.36728474 0.85646087 -0.29236454
0.5222781 -0.05288204 0.42554155 -0.047568914 0.3880983 0.0006029309 0.12747605 -0.15709941
0.017630922 -0.11245327 -0.054035887 0.034507446 0.51806355 0.11586023 0.8669625 0.36533076
0.65892607 0.38922945 -0.18828556 -0.012158104 -0.18964693 0.23505516 -0.0037306538 0.4085381
0.30252317 0.38758463 -0.012215878 0.09416261 -0.27829486 0.3145482 -0.07388791 0.40524423
0.0459994 0.5295907 0.19899774 -0.027724504 -0.15035993 0.5528978 -0.12687057 0.43113586
-0.26199153 0.573204 -0.22795832 0.5374674 -0.40324536 0.13299286 -0.16635233 0.13194829
-0.1029736 -0.0035897219 -0.28960168 -0.21838468 -0.2654906 0.14438665 -0.12270669 0.30410746
-0.4441562 0.24601766 -0.6826015 0.17432077 -0.5339727 0.14842664 -0.25890917 0.3194059
-0.33018917 0.1127058 -0.61019284 0.014787047 -1.012807 0.058708727 -0.8332323 0.27567574
-0.6317264 0.29317808 -0.7145922 0.18407243 -0.20841858 0.11103597 -0.37708187 0.19421658
-0.38214454 -0.085340016 -0.44014797 -0.01122061 -0.3459784 0.012360355 -0.6343468 -0.2857248
-0.4723939 -0.19374338 -0.4382314 0.14756764 -0.32738093 0.2221551 -0.4241263 -0.2230011
-0.46444717 -0.089514576 -0.10973624 0.37441528 0.33279684 0.39118513 0.11948001 -0.31191626
0.10998604 -0.13965526 -0.095216796 0.20741795 0.23594037 0.25743142 0.4261103 -0.5740354
-0.12546128 -0.18087958 0.20924103 0.19831684 0.34588087 0.15139616 0.24049419 0.0819073
-0.3972653 1.2589024 -0.3285989 0.34451798 -0.34672275 0.21758823 -0.32700995 0.3432189
-0.7583484 0.119903006 0.0050573964 -0.01676397 0.22898076 -0.02755026 0.2806797 -0.021267585
-1.0534867 0.10827253 0.050642166 0.00022540006 -0.14867166 -0.18233128 -0.30622116 -0.2229184
-0.8059036 0.0120420195 0.2710882 -0.10107719 0.38025033 -0.31951642 -0.12189861 -0.67582995
-0.39477587 0.05993151 0.30341145 0.068072684 1.047491 -0.1400377 1.2126367 -0.092840545
-0.027819306 0.25156653 -0.022304157 0.22096992 0.07652026 0.017048318 -0.076364286 -0.062203042
-0.041117758 -0.08570171 -0.2141314 0.041226767 -0.025837315 0.03705954 0.14087157 0.120650716
0.18814175 0.1592627 -0.4126762 0.063819125 -0.06478991 -0.016633598 -0.36287442 -0.25121817
-0.88697433 -0.720601 -0.80385244 0.10740199 0.19227679 0.024988035 0.35189018 -0.073179916
-0.18106318 -0.13209245 -0.36617845 0.11035732 0.4144442 0.098838784 0.8717212 0.19998239
1.2574762 0.25232717 -0.035774678 -0.016380578 0.1313538 -0.15454374 0.80068487 -0.28343478
0.8057351 -0.2449855 1.282284 -0.30117702 0.35992938 -0.14654283 -0.010035829 -0.021439394
-0.020564714 -0.03333 -0.048917387 -0.030258352 0.048169497 0.10855336 0.40401062 0.21192998
0.4701105 0.35744974 0.99374866 0.30367282 -0.121234424 0.1364182 -0.17836174 0.12028168
0.21112274 0.19314075 0.07894257 0.19114421 -0.3154309 0.1174974 -0.5563307 0.20921025
-0.56906915 0.17891632 -0.22849005 0.12384614 0.23344755 -0.018959641 0.9705697 -0.44895482

sequential/dense_1/MatMul f4 [10, 20]
00000000: e4d7 22bf 5c48 293f 89a4 f53d d5cf 243d
00000010: 9bae 8fbf 1409 0a3d b841 c9bd e76b 963d
00000020: 46c3 2239 422e 293f 1890 093e 9886 623f
00000030: 7754 a33d d483 653e 3a74 98be 2247 863e
00000040: 00d3 0b3e d2da 253f 30d4 383f a1a5 0fbd
00000050: ede4 853f 43a3 213f 371c 1cbd dcaa 02bf
00000060: e40d 483f 76c6 4f3f 57a9 1c3f c862 1ebf
00000070: 1c94 043f 9be5 c13e 31da 0b3f b297 833f
00000080: 81cc 4ebf 0212 5fbe 0dbd ad3e 4475 e6be
00000090: 3bac 723f c89b 9e3e cf60 d53e 353b ae3e
000000a0: ae7e 9fbd da31 51be 4f8d 913e 9da6 bb3e
000000b0: b2e5 7b3e bb03 063d 2b08 743f 847e 953f
000000c0: 2bfa 9d3f 08fa 74be b7ed c9bc 133a 9dbe
000000d0: 1a36 30be 40a2 95bf 5b65 7bbd 7441 473f
000000e0: 4240 2fbc 4b99 babe c090 5dbe 3a01 e7be
000000f0: fb86 a93d 7e3e 803f d433 293f 13f6 043f
00000100: f828 b0bc 3ccc 723d 50bf 103f 4628 013e
00000110: 4a60 1e3f e958 873f bdda 1c3f 9b6f a63e
00000120: 9c59 373e 4b2f b13e 9d6b e33c 69ab 1f3f
00000130: 4ce1 c6be b5cd 1a3f 17ff 5f3f 48ca 1f3f
00000140: 8e49 4dbe 6fc2 553e 588a 9a3f 27cf 663e
00000150: 5ac4 d0bd 699d 90be 48bc 97be 92f1 98bf
00000160: b449 773e 2ce5 543f db97 c93f e8c6 823e
00000170: b93c 113f 992b 283f c786 563f 92e2 533e
00000180: 5abf 943d d4a1 343f b5f9 b93e ad40 a63f
00000190: 1c17 813f f5c2 74bf 7a05 103d c11c e2be
000001a0: 8f4d 46bf c2f9 773f 0c38 f33d b288 2e3f
000001b0: 1657 103e fdfe 6dbf 3b67 a83e e5ca 653f
000001c0: d027 a7be eed5 293f b09e 313f 50db 073f
000001d0: 11ff 573e 2872 68bc 0b36 6abf bd87 49be
000001e0: 04bf 183f 7ff2 4cbd 35c1 51be cd90 a13d
000001f0: 6359 613e 59d5 9e3c a562 523f 6634 113e
00000200: b79b 733f 3f9d ad3e 125c 88bd f824 ff3e
00000210: 8058 52be bd88 78be 3c4b 723f 84f6 12be
00000220: afe2 a23f e58b 8f3e f8fe 9d3e e578 91be
00000230: e15d ca3e 49a5 38bf e690 a63e 50e0 3c3f
00000240: 8578 543f 9151 3e3b 718d d0be 16f6 9cbe
00000250: 4a01 60be 7fbb 3dbf 90f9 af3e 4169 0a3f
00000260: afbb 7b3f 0a47 903e 2525 7d3f 82ee 7a3e
00000270: 40a5 f63e a41d c0be 3e64 5bbf 2eaf 493f
00000280: 3a02 ccbe 7628 c5bc 595a 05be df59 5b3f
00000290: 601f 793f 7a70 2ebf 9cc4 db3d f4fc 6ebe
000002a0: e561 833d 4cca cb3c be0d 9ebd a5be 17bf
000002b0: f907 573f fdf9 323f 9700 01be 4acb 303f
000002c0: 153f 783e d464 e7bd fa40 603b 177c a5be
000002d0: e57b 263f 11a8 69bf e910 bbbe 9936 743d
000002e0: 46fb 60bc 68be 583f d141 3a3e c5fb fb3d
000002f0: 9dca 113f 6423 be3e 9f63 e8be aa44 013f
00000300: 0c50 04be ea19 fd3c fac9 d13e b4df 04bd
00000310: 129a 583f bf83 40be f4fb 663e 3a93 dcbe
-0.6361067 0.66126037 0.11994273 0.040237267 -1.122516 0.033700064 -0.09826988 0.073447995
0.00015522269 0.6608621 0.13433874 0.88486624 0.07975095 0.2241357 -0.29776174 0.26226145
0.13654709 0.6478702 0.7219877 -0.035070065 1.0460488 0.6313974 -0.038112845 -0.5104196
0.78146195 0.811622 0.6119589 -0.6186948 0.51788497 0.37870488 0.5462981 1.0280669
-0.807808 -0.21784213 0.33933297 -0.45011342 0.9479405 0.30978227 0.41675422 0.34029546
-0.07787834 -0.20429173 0.28428122 0.36650553 0.2459934 0.0327184 0.95324963 1.1679235
1.234197 -0.23923504 -0.024649484 -0.3070837 -0.17208138 -1.169014 -0.061375957 0.7783425
-0.010696473 -0.36445078 -0.21637249 -0.45118123 0.082776986 1.0019071 0.6609471 0.5193798
-0.02150391 0.059276804 0.5654192 0.1261302 0.61865675 1.0574008 0.6127127 0.32507023
0.17905277 0.34606394 0.027761275 0.62370926 -0.38843763 0.60470134 0.8749861 0.6241803
-0.2004759 0.20874952 1.2073469 0.2253996 -0.10193701 -0.28245094 -0.29635835 -1.1948721
0.2414921 0.8316219 1.5749468 0.25542378 0.5673328 0.65691525 0.83799404 0.20691898
0.0726306 0.7055943 0.36323324 1.2988487 1.0085177 -0.9560998 0.035161473 -0.44162562
-0.77462095 0.96865475 0.118759245 0.6817733 0.1409572 -0.92967206 0.3289126 0.8976272
-0.32647562 0.66342056 0.6938276 0.5306902 0.21093394 -0.014187373 -0.91488713 -0.19680686
0.59666467 -0.05003595 -0.20483859 0.07888947 0.22006755 0.019388841 0.8218177 0.14180145
0.95159477 0.33909032 -0.06658186 0.49832892 -0.20541573 -0.24270912 0.9464605 -0.14351851
1.2725428 0.2803642 0.30858588 -0.28412548 0.3952475 -0.72127205 0.32532424 0.73779774
0.829964 0.0029040317 -0.4073291 -0.306565 -0.21875492 -0.7411422 0.3437009 0.54066855
0.9833326 0.28179199 0.98884803 0.24505046 0.4817295 -0.37522614 -0.8569983 0.7878293
-0.3984545 -0.024067145 -0.13022746 0.8568401 0.973135 -0.68140376 0.1073086 -0.23338681
0.06415156 0.024876736 -0.07717465 -0.59275275 0.8399654 0.699127 -0.12597881 0.69060194
0.24242814 -0.11298528 0.0034218417 -0.32321236 0.650328 -0.91272074 -0.3653634 0.05962238
-0.013731783 0.84665537 0.1818917 0.123038806 0.5694979 0.37136376 -0.45388505 0.504954
-0.1292116 0.030896146 0.40974408 -0.032439902 0.8461009 -0.18800257 0.2255705 -0.43081075

sequential/dense_2/MatMul f4 [12, 10]
00000000: 0c81 a1be e8a5 783d 3dec 84be aeb8 363d
00000010: d781 39bf 7602 533f d7f9 163f f741 38bf
00000020: 8872 e5be 511e d43e 8e7e ecbe 70d4 86bd
00000030: 074a 1f3e 650d fbbe 595a acbf e193 2dbf
00000040: d6cb 3d3f 37c8 74be 46c6 213e bd88 753e
00000050: f986 0d3e 5781 12bf 40e3 3c3f b5ed 403e
00000060: 62bc c4bf 678a 07bf 3dbd 5f3e 12ae 65be
00000070: ebe9 4c3e 8ac0 b5be 70fa ed3d e93c fbbe
00000080: 5707 233f ddda a73e d475 5ebf f7f8 573e
00000090: 39d0 6fbd 57e5 4ebf 9c52 07bb 31c9 7fbe
000000a0: 9762 f8be 7d08 ee3b 4a14 463f 2a45 cc3e
000000b0: da4e 0dbe eab7 d33e 87d1 60be e394 5bbf
000000c0: 6c93 3cbf 8b5e 3a3d 0542 73bf a811 cbbe
000000d0: 76c5 87be 3b9d aa3e ac44 213f 294b d83d
000000e0: 7820 2cbf cdb0 413f 77b0 b5bd d981 88bf
000000f0: 42f9 6bbe eee4 26bf d082 a6bf c3df 88bf
00000100: 6d8f 773d ed27 b2be a371 71bd 2419 153f
00000110: dc0f 8a3e f8d1 ab3e 1e07 cf3e e2af d83e
00000120: 5b75 f6bf 56ae 28bf 0171 cabe a1f9 2c3f
00000130: 48d7 ab3d 9824 6e3c bb11 43bf 97cf 403f
00000140: 770c afbe 1075 8e3f 73c6 05bf 06cc 4d3f
00000150: 8a8b b23e 2508 90be e6c0 9d3e 972d 4abe
00000160: d247 a7bf 197e 3bbe 88ed 2ebe 091a fabd
00000170: c822 abbe e842 203d 97af e0be d272 5cbe
00000180: 274c aabf d780 6d3e b536 7e3f 822f 13bf
00000190: 71e4 f63e e3cb 773d 1e90 88bd 12da cb3e
000001a0: 47cb 2f3f 1c2e fc3e 17cc 30bf 4d08 78be
000001b0: f2e5 b3be d1fa 48bf 4c4c 5b3f f117 30bf
000001c0: 3e92 dcbe ee01 283f 005d 243f d270 a6bf
000001d0: ad48 19bf 5ac4 5dbe ed9a 6abc 6fd7 5dbf
-0.31543767 0.060705096 -0.25961486 0.044609718 -0.72463745 0.8242563 0.58974975 -0.71975654
-0.44813943 0.4142938 -0.46190304 -0.06583488 0.15555583 -0.49033657 -1.3465072 -0.6780377
0.74139154 -0.23904501 0.15798292 0.23977943 0.13821019 -0.57228607 0.73784256 0.18840678
-1.536999 -0.5294556 0.21849532 -0.22429684 0.20011108 -0.35498458 0.11620033 -0.49069908
0.63683075 0.32784167 -0.8689854 0.21091066 -0.058548186 -0.80818695 -0.0020648604 -0.24979092
-0.48512718 0.0072641955 0.7737471 0.39896518 -0.1379961 0.41351253 -0.21954928 -0.8577406
-0.7366245 0.04550032 -0.9502261 -0.39661908 -0.26517838 0.33323082 0.6299541 0.10561211
-0.67237043 0.756604 -0.088715486 -1.0664626 -0.23044303 -0.6519307 -1.3008671 -1.0693287
0.060439516 -0.34796086 -0.058946263 0.58241487 0.26965225 0.3355863 0.40435117 0.42321688
-1.9254564 -0.65891016 -0.3953934 0.67568403 0.08390671 0.014535092 -0.7619893 0.75316757
-0.34189197 1.1129475 -0.52255934 0.8038944 0.34872085 -0.28131214 0.30811232 -0.19743954
-1.3068793 -0.18309821 -0.17082798 -0.12211997 -0.33424973 0.039126307 -0.43883964 -0.21528175
-1.330449 0.2319368 0.99302226 -0.57494366 0.48221162 0.060497176 -0.06668113 0.39814812
0.6866955 0.4925393 -0.69061416 -0.24221916 -0.35136372 -0.78507715 0.85663295 -0.6878653
-0.43080324 0.65627944 0.64204407 -1.300318 -0.5987652 -0.21656933 -0.014319164 -0.8665685
