Hand Detection App/model/keypoint_classifier/keypoint_classifier.tflite (tflite, 6808 bytes, 6 tensors)

sequential/dense/BiasAdd/ReadVariableOp f4 [20]
00000000: e457 cb3e 2fb9 f4bd ad4a 303e fb7c 06be
00000010: 384d d53e eedb 45be 7c2b aa3e 35c8 223c
00000020: 4a22 5b3e 5077 9f3e 555e cf3d 9b69 78be
00000030: 688c 49be 1149 863d f342 ffbe 8053 36be
00000040: e4cb 973e b52c 943d 299d 96be e1ca 5fbe
0.39715493 -0.119493835 0.17215987 -0.13133614 0.41660476 -0.19322178 0.332363 0.009935428
0.21399799 0.31145716 0.10125414 -0.24259035 -0.19682467 0.06556905 -0.49855766 -0.1780529
0.29647744 0.0723509 -0.2941678 -0.21854736

sequential/dense_2/BiasAdd/ReadVariableOp f4 [10]
00000000: f062 c93e 6bb8 103f 4148 47bb bade e3be
00000010: bd16 11bf 7ffa 88bc b65e 223f c04c 40bf
00000020: 0045 f0bd bdc8 43be
0.39333296 0.565314 -0.0030408057 -0.44505864 -0.5667532 -0.016721008 0.6342577 -0.7511711
-0.11731911 -0.19119544

sequential/dense_1/BiasAdd/ReadVariableOp f4 [10]
00000000: 5b3b 803e e1ee 54be 1a09 2cbe 8c03 92be
00000010: f1cf 4c3f 4964 c83b 5200 a03e 305a 973e
00000020: 3f5e b43e 2510 3b3f
0.25045285 -0.2079425 -0.16800347 -0.2851833 0.80004793 0.0061154705 0.31250244 0.29560995
0.35228154 0.7307151

sequential/dense/MatMul f4 [20, 42]
00000000: 886a 69be 7214 8dbd 4c1e a33e 011d 09bf
00000010: bf25 0d3f 19bd 4ebe 8202 d13e 0f84 80be
00000020: eaba 403d 5044 20be 04a2 d23b 3a61 fe3b
00000030: 040c d03d 0e68 34be d21e 1f3e d377 c1be
00000040: c9f3 533e 42d6 c0be ae9f 80be 0699 2ebe
00000050: 12e2 a7bd 1144 d23d cd0f 3e3e 3a1c 533e
00000060: e03e c53e ee82 d03e de73 00bf bac2 253d
00000070: a24c b73d 2e78 4e3e 10d3 be3e b4d9 043f
00000080: 0054 a63e 5b63 0b3f 491b dbbe 4a96 0a3d
00000090: 7d4d 9ebd eb54 753e 9307 a03d 24af e73e
000000a0: 6878 d83e ace9 213f cc0a 423e 00bf 393c
000000b0: 233a 073f 28b8 013f cc98 853e f286 f33e
000000c0: 079e 463f d3ef 673e 38d7 503f 1c78 d13d
000000d0: f46e 053e 81a1 cd3d c281 bf3e 2a5d dfbb
000000e0: 909c 9b3e 3a18 17be 2ef8 713d b490 aa3d
000000f0: 9255 c73e 8a23 f33c 6d74 ce3e c91a 853d
00000100: a7e6 f93e 8717 20be 6237 733e dfcb 71bc
00000110: 8fe4 71be 9791 d2bc 9a07 22be c4e3 1fbe
00000120: 0b21 1dbe cfae d9be 912c 4dbe d97e ccbe
00000130: 355c bdbd 367a 93bc d17a 18bf a4f5 00bd
00000140: dc00 20bf f4fa 61be e26a 8abf 6e22 d5be
00000150: dca2 6abe e8de 56bd 82c6 683e 6a0e 8ebd
00000160: 5d1a 913e 2afe b0be a982 db3e a15e c3be
00000170: 9f41 533e 9574 ebbd d0ba 0b3f 0d8c 04be
00000180: ca45 ef3e 3969 f23b e13d 033f e6aa 1ebd
00000190: e6cf c23e 8664 11be 1aab c43e 75d6 ffbd
000001a0: 416f 063f 6e6b 193e b8a7 f33e 0191 b93e
000001b0: 9cb3 6e3f 8e10 c83e c956 39be 0ed2 52bd
000001c0: c38c 8d3e 919c 363d 9739 733e dcc9 a23e
000001d0: 2aaa b23e f79f f03e edb8 f4bc c4e4 f23d
000001e0: f5f2 0dbe 1d6c 483e 2868 913c ef76 033f
000001f0: 585f a03e 6e4c d73e e099 8f3d 8672 163e
00000200: aa12 03bf d0e8 f93d 9959 f0be bf81 70bd
00000210: ddfc 63bf b3a8 533d 1be4 81bf 0c6d 3d3e
00000220: 6f35 abbe def8 adba 74ef febd 4f75 e3bd
00000230: b6f2 3b3e 0be0 e6bd a2bc 953e 9ca5 57bd
00000240: 1b2a efbd 9543 2fbe e184 673c f7c5 84bd
00000250: d50c 243e 15e6 10be 5d41 d83d e47b 27be
00000260: 3865 1fbd 6fde cabd 25df 383d 5e77 5bbe
00000270: e3e1 bc3d d8c1 2fbe 720b 473e c808 a2be
00000280: e5ae 2e3e 6f3d 34bd d875 bf3e 03b3 d6bd
00000290: 4c8b 473f 2bb4 783c f83f 6e3f f36b 2d3d
000002a0: 50bf c73c 8cfe a03d bad5 99be 8a45 00bf
000002b0: 8936 68be be9c 8fbe 7aa1 cf3c 2e3b d1bb
000002c0: 83c7 023f 776d 473e d46e 23be cb42 893d
000002d0: d6de 4b3c bc02 4f3d e489 53bd 5525 cbba
000002e0: b8bb 1cbd 61c4 85bd 5c59 7d3e 8be0 a13d
000002f0: 0557 67be d638 0fbd cb4c 4dbd fcde 2ebe
00000300: 0392 16bc ec0b 4cbf cc22 a6bc 5da9 403e
00000310: b7be 663e 1433 403e a0ea b5bb cff0 d63e
00000320: cba3 85be 3890 db3e c581 3a3e b7a0 893e
00000330: 3aa4 123e fcda 953e f55a 29be 1f74 ee3e
00000340: 95d8 13bf 6101 1a3f 3670 42be a4f3 373e
00000350: ff30 9abe d2e4 013f 4776 c5be 6e70 193e
00000360: e6cb 52bf 4951 56bc 8888 26bf fdac c6bd
00000370: 2ccb 69bf ee97 2cbe 0451 bbbe 2b43 eebd
00000380: c9de d0bd 78a6 77bd 3bcb a83c 11b5 dabd
00000390: 314d 25bf 73be 82bd ab71 a6be c691 9bbe
000003a0: 8a51 cbbd 0304 bdbe e854 d4bc 33a6 67be
000003b0: e30c 193e e219 aabe cd5b 8a3e e305 84be
000003c0: eb24 4e3e 566f 9abd 3db2 743d d322 56bd
000003d0: 17a1 263c f718 e8be 2232 d33e d6ac 29be
000003e0: 477d 873f 1cc9 893e 07f6 893f 2e98 053f
000003f0: a2c4 93be 48cf c03d b556 063f 2b6a 7fbd
-0.22794545 -0.06888665 0.31859052 -0.5355988 0.5513572 -0.20189323 0.40822226 -0.25100753
0.047053255 -0.15651059 0.006428005 0.007763055 0.10158542 -0.17617819 0.15539101 -0.3778673
0.20698465 -0.37663466 -0.25121826 -0.17050561 -0.08197416 0.10266889 0.18560715 0.20616236
0.38524532 0.4072489 -0.501768 0.04046891 0.089501634 0.20163032 0.37270403 0.5189469
0.32485962 0.5444848 -0.42794254 0.033834733 -0.077296235 0.23958175 0.07813945 0.4525081
0.42279363 0.6324718 0.18949431 0.011337042 0.52823085 0.50671625 0.26093137 0.47563893
0.7758488 0.2265008 0.815784 0.10227987 0.13030607 0.1004057 0.37403685 -0.006816526
0.30392885 -0.14755335 0.059074573 0.08328381 0.38932472 0.029680032 0.403232 0.064992495
0.48808786 -0.15633975 0.23751596 -0.014758079 -0.23622344 -0.025704188 -0.15823212 -0.1561423
-0.15344636 -0.4251618 -0.20036532 -0.39940527 -0.09246103 -0.01800261 -0.595624 -0.03148426
-0.6250131 -0.22068387 -1.0813868 -0.4162783 -0.22913688 -0.052458674 0.22731975 -0.06936343
0.28340426 -0.34568912 0.42873123 -0.38158134 0.20630501 -0.11496846 0.5458193 -0.1294405
0.46732932 0.0073977974 0.51266295 -0.0387372 0.3804924 -0.14198503 0.3841179 -0.12492076
0.5251351 0.14982387 0.47588897 0.36243442 0.9324281 0.3907513 -0.18099512 -0.051469855
0.27646455 0.044582907 0.23752438 0.3179463 0.3489545 0.46997043 -0.029873336 0.1186004
-0.13862212 0.19572492 0.01774986 0.51353353 0.31322742 0.420505 0.07011771 0.14692125
-0.51200354 0.122026086 -0.46943358 -0.058717486 -0.89057714 0.051674556 -1.0147737 0.1849863
-0.33439204 -0.0013273021 -0.12448016 -0.11106359 0.18354306 -0.112732016 0.29245478 -0.05264817
-0.11677953 -0.17115624 0.014130802 -0.06483071 0.1602052 -0.1415027 0.10559342 -0.16355854
-0.03891489 -0.09905707 0.045134682 -0.21432254 0.09222772 -0.1716379 0.1943796 -0.31647325
0.17058904 -0.0440039 0.37394595 -0.104833625 0.77946925 0.015179674 0.9306636 0.042339277
0.024383217 0.07861051 -0.30045873 -0.5010611 -0.22677054 -0.28049272 0.025345553 -0.0063852286
0.5108568 0.19475351 -0.15960246 0.06702193 0.012443265 0.050539717 -0.051645175 -0.0015498797
-0.03826496 -0.06531597 0.24741119 0.07904156 -0.22591789 -0.034966312 -0.050122064 -0.1707725
-0.009190085 -0.7970569 -0.020280264 0.18814607 0.2253369 0.18769485 -0.005551651 0.41980597
-0.26101527 0.42883468 0.18213566 0.26880428 0.1432046 0.29268634 -0.16538604 0.46572968
-0.5775235 0.60158354 -0.18988118 0.17964035 -0.30115506 0.5073978 -0.385668 0.14984295
-0.82342374 -0.013080903 -0.6505208 -0.09700964 -0.9132564 -0.16854832 -0.36585248 -0.11633905
-0.10198743 -0.06046149 0.02060472 -0.10679067 -0.6457091 -0.063839816 -0.32508597 -0.30384654
-0.09927662 -0.36917123 -0.025919393 -0.22621994 0.14946322 -0.33222872 0.27023163 -0.2578574
0.2013127 -0.07540767 0.059740294 -0.052279305 0.010170243 -0.45331547 0.41249186 -0.16569838
1.0585107 0.26911247 1.0778207 0.5218533 -0.28860956 0.09414536 0.52476054 -0.06235711

sequential/dense_1/MatMul f4 [10, 20]
00000000: 2674 88be 8e0c 87bf d749 083f f98a 753d
00000010: 4adc 2f3f 927d 2e3e 79a3 08bf 50c8 e5be
00000020: dac7 70bf f803 f33e def8 debc 9dbc 2a3f
00000030: 1719 4e3f 2957 373f 3254 833c e719 dd3e
00000040: cee0 363f e34f 0fbf 9a16 0d3e c919 08bf
00000050: 9658 343d bf64 d53d 4588 ec3e 39a0 023f
00000060: 5fda d2be 2851 973d 3f04 023e 3c63 c03f
00000070: 415d e63d ca6c d63e cc60 343f 07d8 ca3d
00000080: b073 a9bd 89bc f63e b990 773f 4d22 023f
00000090: 3ef2 46bf af0e 01be 4b69 253f bd21 363e
000000a0: aed9 8d3e be52 b3bc c91a e23c b31f 513e
000000b0: 84a3 e33e 2495 893d c176 89bd 6e5b eebc
000000c0: da10 71be e0cc fa3e b1d1 e43d 6054 98be
000000d0: 47bd 6a3f 07f5 073e 608b 0c3e 65de 733d
000000e0: 4e9d 813e 617a 2d3e eb20 fbbe b918 193f
000000f0: e149 f13e fb1a 013f b047 753f 9883 03bd
00000100: 99e8 3f3d ed52 42bd 41e3 353e ff64 5b3f
00000110: 45ba 8d3e a8ff ef3d c2b3 d23d 648f b1be
00000120: 2c5d ebbd 05ce b13e 9e47 873c 080b 80be
00000130: f7d8 1ebe 6764 453f 6d45 ef3e b527 bbbc
00000140: b0a7 713e 439d fcbc 35fe 023e d357 573f
00000150: 7b6e b5bd 6879 893f 7795 0fbe 8718 f0be
00000160: 57a0 7b3d 3b9d 3ebe f500 e4bd 00ce 8d3b
00000170: a103 f93e ec28 15bf aa82 df3e 6fb2 4c3f
00000180: 5d13 423f 6e5e 0abf 189b 4d3f 749e 8f3d
00000190: b9f7 a03e 3881 073e 894b 943e 2c6b a8bf
000001a0: 1ffc 24bf 3840 04bf f760 f93d 3340 5a3d
000001b0: 40d8 9d3e b439 463f 1740 aebe 16b0 f93e
000001c0: 75c8 ad3e 601c e53e 856d ccbe 5aa8 833e
000001d0: 67a5 fc3e d988 213f a782 47be 4bf1 fb3e
000001e0: dbc3 8ebe 106e 6c3f 0b55 0cbe 5a94 5d3e
000001f0: 42f3 06bf 4386 d5be 85fd 863e 6834 31be
00000200: 5d20 96be 7699 9ebe 779b d8be 3b0f b2bc
00000210: db26 cc3d b48b 95be b21d 393f b18e 303e
00000220: d4be 8d3d 8ecd a4be 8bc4 0d3f bbbd 09bf
00000230: 355a 91be 9051 e33e 16e1 1bbf e0d9 7c3e
00000240: 1401 143f 86f8 0b3e e204 7e3e 5d49 8b3e
00000250: 4c72 283f f1df 8bbf 22f2 a23e cfee c63d
00000260: c52a 32be 8737 d43d 0761 8b3e 7fdc ab3e
00000270: a810 2dbf f254 e6bd da24 8f3e 963b ff3e
00000280: 230b 2f3e 1d07 5d3f 78d6 05be 8c92 893c
00000290: ad87 fbbe d97a 323d 4b93 2b3f c1c5 453e
000002a0: 88f7 2e3f 88e4 9f3d a4a4 03bf c1b9 683f
000002b0: 911b 25bf f82b 62bf 38fa a1bc c1e2 60bf
000002c0: fa9f fa3d 91f5 343e 6d55 4ebf 739a 703f
000002d0: 81be c13f 8e25 173f 5b56 cf3e 81fc 923d
000002e0: 09fa 8c3f 4921 ff3c 80af 713f b639 d1be
000002f0: a7f0 a43e 6a58 d33e 2e55 613f d32e c1be
00000300: 10d4 abbe 11f7 923e 348f b8bd 2ba5 5ebd
00000310: e453 f23e bfbe 543f 27ff 563d 3396 73bd
-0.26651114 -1.0550706 0.5323767 0.059946988 0.6869551 0.17040089 -0.5337444 -0.4487939
-0.9405495 0.47463965 -0.027218278 0.6669405 0.80507034 0.7161737 0.016031358 0.43183824
0.71436775 -0.5598127 0.13778153 -0.53164345 0.044029795 0.104196064 0.46197715 0.5102573
-0.4118223 0.07388526 0.12696932 1.5030284 0.112482555 0.41879874 0.704602 0.09904485
-0.08274019 0.48190716 0.96705204 0.5083359 -0.7771338 -0.12603258 0.6461379 0.17786308
0.2770514 -0.02189004 0.027600663 0.20422249 0.4446069 0.067178994 -0.06712104 -0.029096331
-0.23541585 0.48984432 0.11172808 -0.29751873 0.91695064 0.13277064 0.13725042 0.059538264
0.25315326 0.16941215 -0.49048552 0.5980335 0.47126678 0.50431794 0.9581251 -0.03210792
0.04685268 -0.047442365 0.17762472 0.8570098 0.27681175 0.117186844 0.10288192 -0.3467971
-0.114923805 0.34727493 0.016513642 -0.25008416 -0.15512453 0.77106327 0.46732655 -0.022846082
0.23599124 -0.030836707 0.12792285 0.84118384 -0.08858963 1.0740175 -0.1402186 -0.46893713
0.06143221 -0.18614666 -0.11132995 0.0043275356 0.4863558 -0.58265567 0.43654376 0.7995977
0.75810796 -0.5405034 0.8031478 0.070126444 0.31438997 0.13232887 0.2896388 -1.3157706
-0.64447206 -0.5166049 0.12176698 0.05328388 0.30829048 0.774318 -0.34033272 0.48767155
0.33942 0.4474821 -0.39927307 0.2571438 0.49344942 0.6309944 -0.19483434 0.4920753
-0.278838 0.9235544 -0.13704316 0.21638623 -0.5271493 -0.41703996 0.26365295 -0.17305148
-0.29321566 -0.30976456 -0.4230611 -0.021735778 0.099683486 -0.29208148 0.72310936 0.17241932
0.06921163 -0.32188076 0.55378026 -0.5380513 -0.28389135 0.44398165 -0.6089033 0.24692488
0.57814145 0.13669023 0.2480655 0.2720441 0.65799403 -1.0927716 0.31825358 0.09713518
-0.17399128 0.103621535 0.27222463 0.33566663 -0.6760354 -0.11246671 0.27957803 0.49850148
0.17094092 0.8633898 -0.13070095 0.016793512 -0.4912695 0.043574188 0.67021626 0.19313718
0.6834645 0.07807261 -0.51423097 0.9090844 -0.6449519 -0.8834834 -0.019772634 -0.87846
0.12237544 0.17671801 -0.805991 0.9398567 1.5136262 0.5904168 0.40495571 0.071770675
1.1013805 0.031143801 0.94408417 -0.40864342 0.32214853 0.41278392 0.880206 -0.37731037
-0.33560228 0.28704122 -0.09011689 -0.054356735 0.47329628 0.83103555 0.052489426 -0.059469413

sequential/dense_2/MatMul f4 [10, 10]
00000000: 3407 0abf a88a 02bf 492c 1bbf 2388 023f
00000010: 7375 393e 8b44 263f 9dab 6dbe 0ef1 7bbf
00000020: b1e9 8a3e 7fc8 ed3e 588d 45bf 2a27 b0bf
00000030: c1b2 71bc 6203 0bbf 481e 3e3e 4921 dbbe
00000040: 0bbf 60bf 0c01 c9bd 3b31 9c3e cd8b 303f
00000050: 1e73 24bf 6363 a93b e6bb 16be 21dc 0e3d
00000060: eb2c b53c eaac dcbe d6e4 9cbd ab9a 38be
00000070: 324c 233f 7c9e 91bd f769 b3be 8d11 b13e
00000080: ae91 b33d dbe4 5cbe 9d44 4cbf 356b 31be
00000090: 32b1 a73e 7658 a23e e1bb ad3e 7788 c2bd
000000a0: c3d9 03be bcb3 95bf 2d39 543e 6ea4 1cbe
000000b0: 447b a0bf 1426 bb3e a7f7 d73e cad3 323e
000000c0: 8063 093f 8895 beb8 f41c db3e 335f 233e
000000d0: e346 1ebc 134d efbd bb4f 4c3f dcb9 55be
000000e0: d7a7 103f 23e0 5cbf e701 14bf 0703 92bf
000000f0: 75b5 81be 2bab f0bd cfdd 87bf 9c63 8dbf
00000100: a0cc c93e 610f 62bf d56e 37bd 5c60 2c3f
00000110: 4875 a9bf cedd 2e3f 2714 d5bd 65af e53e
00000120: e10d 3dbf 7497 743f 35fa 3cbf b157 0ebe
00000130: f012 2dbf a9ab 223e a978 6ebf b5b3 3f3f
00000140: 33f8 953f 6d74 303e 3954 f73e 571f 193d
00000150: a754 5ebe 6dc8 143f 7d59 afbf 0b97 7fbe
00000160: b7b2 24bf 7283 a83d 47de 53bf fa4f 383f
00000170: d513 d1be 3fdd fabd 0510 d63e 3334 0e3d
00000180: 22c7 babe f07f 0d3f d0ae f9be 4686 89bf
-0.5391724 -0.5099282 -0.6061445 0.5098898 0.1811121 0.6494834 -0.23209997 -0.98414695
0.27131417 0.4644203 -0.771688 -1.3761952 -0.014752091 -0.54302037 0.18566239 -0.42798832
-0.8779151 -0.09814653 0.3050631 0.6896332 -0.64238155 0.0051693185 -0.14720115 0.0348779
0.022116145 -0.43100673 -0.076608345 -0.18027751 0.6378814 -0.071103066 -0.35041782 0.34583703
0.087680206 -0.21571676 -0.79792196 -0.17326052 0.32752377 0.31708115 0.33932403 -0.09498685
-0.12876038 -1.1695476 0.20724936 -0.152971 -1.2537618 0.3655249 0.4218113 0.17463604
0.5366745 -9.0877584e-05 0.42795527 0.15954284 -0.009660455 -0.116846226 0.7980916 -0.20871681
0.56506103 -0.86279505 -0.578154 -1.1407174 -0.25333753 -0.11751398 -1.0614566 -1.1046023
0.3941393 -0.88304716 -0.044783432 0.6733453 -1.3238916 0.683072 -0.104042344 0.44860378
-0.738493 0.955436 -0.73819286 -0.13900639 -0.6760702 0.15885796 -0.9315286 0.74883586
1.1716369 0.17231913 0.48306444 0.037383404 -0.2171198 0.58118325 -1.3699185 -0.24959962
-0.643352 0.08228196 -0.82761043 0.71997035 -0.40835443 -0.122492306 0.41809097 0.03471775
-0.3648005 0.5527334 -0.48766184 -1.0744102
