Hand Detection App/model/keypoint_classifier/keypoint_classifier.tflite (tflite, 6940 bytes, 6 tensors)

sequential/dense/BiasAdd/ReadVariableOp f4 [20]
00000000: 6e80 71bf dc2f c7be baea e23e eaad 93bf
00000010: 5aeb 98bf f025 143e e9c6 41be cdc9 69bf
00000020: cb94 4ebe 433c eabe f99c b0bf 6e7f 9abe
00000030: 46a4 18bf 9096 813f bb88 6cbd 469c 4e3e
00000040: 75b7 863e 6dac bebe ec30 a9bd 567e 983e
-0.94336593 -0.389037 0.44319707 -1.1537449 -1.1946824 0.14467597 -0.18923534 -0.9132355
-0.20173948 -0.457491 -1.3797904 -0.30175346 -0.5962566 1.0124073 -0.057747584 0.20176801
0.26311842 -0.37240925 -0.08261284 0.29783887

sequential/dense_2/BiasAdd/ReadVariableOp f4 [13]
00000000: 1fb9 0d3f 7333 653f aa0f de3e fff9 27bd
00000010: 6eeb 3dbf efda 27be 681e cd3f c7c6 a7be
00000020: ceb0 09bf 07b1 0fbf 514c b2be 4f7e 193e
00000030: a757 25bf
0.553606 0.8953163 0.43371326 -0.0410099 -0.7418736 -0.1639211 1.6024904 -0.32768843
-0.5378541 -0.561295 -0.3482385 0.14989589 -0.6458687

sequential/dense_1/BiasAdd/ReadVariableOp f4 [10]
00000000: bb66 2abd 74da 8d3f faa5 a43d c806 1bbd
00000010: 8753 8d3f c585 0c3f 89db e83e 75db 31bf
00000020: 8340 dc3e 3fa4 cf3e
-0.041601878 1.1082292 0.0803947 -0.037848264 1.1041116 0.54891616 0.45479992 -0.6947549
0.4301797 0.40554997

sequential/dense/MatMul f4 [20, 42]
00000000: 045a 093e a7e0 2fbe d595 57bf 269c 073e
00000010: 689b 40bf 80e8 aa3c 2eb7 87bf b9fb 31bd
00000020: 28bb b6bf b8bb 4dbe 4b95 0fbe 1272 0f3e
00000030: 1655 093e 6e1b 0f3d dffb 5b3e 217e 91bd
00000040: 8411 593e 7b6c f5bd d745 373e d920 653d
00000050: f836 c2bd fdd4 5f3c e520 6bbe e69e d23d
00000060: 519d 38be 32d9 283e e6c5 833e 5d2d 0dbe
00000070: 15a7 2d3d 8079 48be 587e 02bc 1aaa 58bd
00000080: c21f 263f 066b a7bd 1735 b83e e1cd 07bf
00000090: 1d23 c63e 942f 72be e029 ef3e f190 d5be
000000a0: 5892 5c3f f984 84be 38e1 e73d d0bc b13d
000000b0: 9a4c 5f3e 4f83 823f 500d 2c3e bc89 e23e
000000c0: ae47 1f3d 15ac 9c3e 829b 12be 3a46 3c3e
000000d0: 3475 163e 45e2 753e d9ce f03d 69f5 193e
000000e0: 5466 0b3d 4aa2 8d3d 9a6b 0f3d 8702 333c
000000f0: f392 093e 2d7a 6f3e 1a2c 733d 48b3 013e
00000100: 89f6 4e3e a5f0 12be 94a4 f43d dcf3 1fbf
00000110: e1fd ecbe 998c 433e cba5 b6be 9b38 cf3d
00000120: 2231 253e 2a02 21bf 938c b43d 118a 8cbf
00000130: 43d9 eabe e4cf 983e 7cc5 02bf 7edc 223e
00000140: eb0e 4cbe f858 48be 898a 883d 3422 48bf
00000150: 986b 1bbd d8a4 7e3e 9f20 833e 19b9 8cbf
00000160: 9c15 cf3d b319 03be 8868 4abe 9c32 cd3d
00000170: c8ee b7be ac6c 3f3e 4bb2 5e3e ee2a e2bd
00000180: 2f2b a6bd ad45 11bc 3203 02bf 43f1 82be
00000190: d30b 17bf 55a4 7abe 4de1 ed3e e2f9 c43c
000001a0: 1074 25be c5af 423e aff8 c2be 3769 ad3e
000001b0: 82c5 a2bd 29d2 a23e 536f 0dbe 32ce 5b3d
000001c0: 567e 1fbf 99d7 773e 73d9 98be d7ac d73e
000001d0: c3df 7d3c b002 b23e 9e0b 12bf 1f49 8b3d
000001e0: 6ec8 2cbf d091 6e3e 476f 1dbf 2c2b 9b3e
000001f0: 22b6 0cbf 2f9c a73e 3673 173e 7485 8b3e
00000200: 5dae 8bbe 8ca8 94be dccd aebe 34e6 a4be
00000210: 6c0c 2cbe 055a 76be 75c1 37bd 74f8 bcbe
00000220: 29c9 53be e255 95be 1b83 26bd b111 2ebe
00000230: 7094 0cbe 2f1b 9fba 2131 60bd 00c8 903d
00000240: 7218 f03d 1827 efbe 6ff8 9cbc 2641 93bd
00000250: 696a 94be 5ee3 423e 9e3c b4be 1b0a 5f3e
00000260: 488e bd3e 7c5a bebe 0aa4 e03d 54cc 25be
00000270: ec02 18be 05e5 aa3d 76a1 e63e 9cb4 9b3d
00000280: d69e bf3e 1101 24bf d73c c23e b172 e4be
00000290: 1762 c33e 81a4 c2bd 770d 063f de25 edbd
000002a0: f3a0 7cbe 3cd5 c03d 20b5 04bf 6258 9ebd
000002b0: fb71 12be e73c 96be 0d00 c9bd 9d2f a8be
000002c0: 6130 803d 4e04 96be fe39 49be e6a1 94be
000002d0: c827 4ebe 0052 97bd 1288 b0bd b420 00bd
000002e0: bdd7 9abd 5ddf 53bc eaf1 78bd 20f5 5cbe
000002f0: 83e1 d2bd e6f2 eebd f36f 82be ea45 da3d
00000300: 90d1 a5be 2624 113e 10d0 b13e dfd9 c1be
00000310: acaa 10be 80f3 67be ab17 893d bbb4 13bd
00000320: 7d61 9c3e 64e1 9a3c e3c1 093f 2cac 0ebf
00000330: b129 c23e d939 b3be 7605 0b3f 6715 7fbe
00000340: b90e 733f 9285 51be 372a 15be 8804 32be
00000350: cf5a f73d db34 233f c929 a4bd 4556 403f
00000360: 9cf0 01be 8877 673f ae08 653c 6c70 623f
00000370: 91ba 20be d7e7 8b3e ba17 cfbd 9a53 e23c
00000380: 7dc3 54bc ef7d 1fbe c23e 20be 52f5 99be
00000390: d8ef 02bf c504 7f3e 03ac 80be a474 693e
000003a0: 8113 bdbe 2a01 d13e 9a79 31bf 6328 973e
000003b0: 3880 87bf 5a96 173e fc20 72be 3e53 163e
000003c0: 1055 e4bd 9813 3c3e 6d3a 83be 985d 3a3e
000003d0: 9a58 9abf 7965 f0bd ab3d f2be 75ba 9cbd
000003e0: d795 77be 5825 cebd 842f 1ebe 75a5 863d
000003f0: 66fa 81be c28a 8c3e b5f0 763f f569 f43e
0.13413244 -0.17175542 -0.84213 0.1324316 -0.7523713 0.020862818 -1.0602777 -0.043452952
-1.4275866 -0.2009114 -0.14021794 0.14008358 0.13411364 0.03493827 0.214828 -0.07104135
0.21198088 -0.11983582 0.17897736 0.05593953 -0.09483141 0.01366162 -0.22961767 0.10284214
-0.18028761 0.16489103 0.25736922 -0.13786836 0.04239567 -0.19577599 -0.007964693 -0.052896596
0.6489221 -0.0817471 0.35978004 -0.5304852 0.38698664 -0.23650962 0.46711636 -0.41712144
0.861608 -0.258827 0.11322254 0.08678591 0.21806565 1.0196322 0.16801953 0.44245708
0.03888672 0.30600038 -0.14317134 0.18386164 0.14693147 0.24012096 0.11758203 0.15035023
0.034033135 0.0691572 0.035014726 0.010925896 0.13434963 0.2338645 0.05936823 0.12666047
0.20211233 -0.14349611 0.11945453 -0.62481475 -0.46287444 0.19096602 -0.35673365 0.101182185
0.16132024 -0.6289393 0.08815875 -1.0979635 -0.45868883 0.29846108 -0.5108259 0.15904424
-0.19927566 -0.19565189 0.066670485 -0.7817719 -0.037944406 0.2486757 0.25610825 -1.0993987
0.101115435 -0.12802772 -0.19766438 0.100194186 -0.35924363 0.18693799 0.21747701 -0.110433444
-0.08113705 -0.00886671 -0.50786126 -0.25574693 -0.5900242 -0.2447675 0.46460953 0.024044935
-0.16157556 0.19012363 -0.38080356 0.33869335 -0.07947828 0.31800964 -0.13811998 0.05366344
-0.6230215 0.24203338 -0.298534 0.42124054 0.0154952435 0.34767675 -0.57048976 0.06801056
-0.6749333 0.2329781 -0.6149792 0.30306375 -0.5496541 0.32736346 0.14790043 0.27250254
-0.27281466 -0.2903484 -0.34141433 -0.3220688 -0.16801614 -0.24057777 -0.04486223 -0.36908305
-0.20682205 -0.29167086 -0.040652376 -0.16998936 -0.137285 -0.0012138839 -0.054734353 0.07069397
0.117234126 -0.46709514 -0.019161431 -0.071901605 -0.28987435 0.19032046 -0.35202497 0.21781199
0.37022614 -0.3717841 0.10968788 -0.16191226 -0.14844865 0.08344463 0.4504506 0.07602808
0.3742587 -0.6406413 0.37937042 -0.44618753 0.38160774 -0.09504033 0.52364296 -0.11579488
-0.24670772 0.09415671 -0.51838875 -0.077317014 -0.14301293 -0.2934334 -0.09814463 -0.32848826
0.062592275 -0.2930016 -0.19651029 -0.2902977 -0.20132363 -0.07388687 -0.08619703 -0.031281188
-0.0756068 -0.012931672 -0.060777582 -0.21577883 -0.10296919 -0.11667423 -0.25476035 0.10657866
-0.32386446 0.14173946 0.34729052 -0.37861535 -0.14127606 -0.22651482 0.066939674 -0.03606103
0.30543128 0.018906303 0.5381147 -0.55731463 0.37922433 -0.35005072 0.5430521 -0.24910508
0.9494434 -0.2046111 -0.14566885 -0.17384541 0.12077867 0.63752526 -0.080157824 0.75131637
-0.12689441 0.90416765 0.01397912 0.8845279 -0.1569617 0.27325317 -0.10111947 0.027627755
-0.012986061 -0.15575384 -0.1564894 -0.30069977 -0.5114722 0.24904163 -0.25131235 0.22798401
-0.36928943 0.408212 -0.69326174 0.29523 -1.0586004 0.14803448 -0.23645395 0.14680192
-0.11149037 0.1836685 -0.25630513 0.18199766 -1.2058289 -0.117381044 -0.47312674 -0.07652751
-0.24178253 -0.100657165 -0.15447813 0.06574527 -0.2538635 0.27449614 0.9646104 0.4773709

sequential/dense_1/MatMul f4 [10, 20]
00000000: 887b ecbd afae 04bf 5204 c13e 03b6 bf3d
00000010: 3d2e a53e 229c 9fbd 718d 073e f9b0 87bd
00000020: 35ef f63d bb93 c2bd 62a8 f63e b326 473f
00000030: 00e3 c33f 1ade 10bf 5ac1 c43d 732c 373f
00000040: a8af dfbe ea8a 1c3f 7bba 89bc 69ca f9be
00000050: b096 00bd b633 f0bd c605 df3d 6202 1f3e
00000060: 61fc ae3d ce64 7dbd 6c08 d43e e94c 8ebf
00000070: 4218 dabc 54b9 dbbd 9ca6 bfb8 18a0 d03d
00000080: 0203 263f 7573 283f 7252 5d3f f281 ae3e
00000090: edce 083f b4f5 223f f13d 95be b151 78be
000000a0: eb5c bcbe cccb 563d 6751 85bf 969d e8bd
000000b0: 8691 cbbd 7e4d 073f 2a33 d03d 949a 453f
000000c0: 57d9 e83e f67d ae3e 3b87 8c3e e455 853e
000000d0: 4467 cf3d 7d74 0d3e d523 383f 7328 4c3e
000000e0: fca7 78be fdd8 b73e 6165 c4bd af77 a63f
000000f0: 70bd 493d e34b c2be 8939 223f 3ce1 0cbd
00000100: 73db 5a3c 3ed7 7c3f ff4f b8bf a08d d83e
00000110: cf2b 5dbf 5695 913e cbdf 47bf 05f5 ad3e
00000120: 4cb3 6abf 898d b13f eaa2 933b e6c6 103f
00000130: 3aa2 91bf 137e 67bf 58a1 0a3f f795 b1bd
00000140: 681f 513d b993 893f 803d 46bf 4182 6b3e
00000150: d4be d63e 5cfe 94bf 40ef 2d3f d44d f03e
00000160: 1181 58be 4c7c 073f 54da f53e 3989 6cbf
00000170: 5a01 4b3f 4402 41bf ebca 7fbe 0c1c 783f
00000180: 06ec db3e 2e6b 6ebf b0f9 4b3f ea29 39bf
00000190: 9c9e e63d da96 10bf 1ad4 92bf a561 9b3d
000001a0: a342 023e 4042 47be 4abd b13e 2204 20bf
000001b0: ee3c 503f 9b70 69be e234 7b3e 7b23 ecbe
000001c0: 7512 5abe 7145 bebf f75b 363f 235e 82bf
000001d0: 919e 443f 19ca 443f 3ff5 2bbf 559a f83e
000001e0: 8e86 07bf ad9c 423f 5b3a 0e3f 815f 44bf
000001f0: 8526 65bf 0610 e43e c8fc 003e 5db8 fdbe
00000200: 9866 973d 426a 0ebf f83e dabe 22bb a63e
00000210: fa56 2c3f 1e06 823f b74d 0dbe c095 b53f
00000220: 7abe 553e 609e 403f c780 b93e 84bb 723d
00000230: 2085 533f d1a4 b23e 651d 963e 6d3a 3c3f
00000240: 4c5b c93e 80f9 09bf fffe 803e ad0b bb3d
00000250: 6e26 af3c f861 a2be df84 893f 5b4b a63e
00000260: 1f93 473f a097 0cbf b42f a23e 82e0 a73e
00000270: 9a96 053f bc45 883e 0801 75be 73d5 b3be
00000280: 0d8f 943f 083e 18bd 72d8 a83e af12 983f
00000290: c58f a73f 5395 c5bb b9a0 0fbb 146b 903f
000002a0: 8452 5c3e 2246 a73f 7cca ae3f 8144 2b3f
000002b0: 0024 febe 62db 9abe c599 de3e 3a26 48bd
000002c0: 3761 1cbe cd5f 2b3f 0f91 1b3f 057b 8d3e
000002d0: 0bac 3d3d 195c d23f f9a6 92bf d6b0 5d3d
000002e0: cc51 a43d 9e16 253d 263a 2f3f caf0 87bd
000002f0: dcee 533f 6e43 11bc 2ab0 cb3b 871b 1cbd
00000300: 9d35 f23e 5539 9bbf f256 563e a2a4 003f
00000310: a316 453e 94a6 7ebf 4d5d 383d 333d f23e
-0.11546999 -0.51829046 0.3769861 0.09360888 0.3226184 -0.07793452 0.1323755 -0.06625552
0.12057344 -0.095008336 0.4817534 0.77793425 1.530365 -0.565889 0.096071914 0.715522
-0.43688703 0.61149466 -0.016812554 -0.4878724 -0.031393707 -0.11728613 0.10889773 0.15528253
0.08544231 -0.061863713 0.41412675 -1.1117221 -0.026622895 -0.10728708 -9.138623e-05 0.101867855
0.6484834 0.65801173 0.86453927 0.34083515 0.53440744 0.63656163 -0.2914882 -0.24249913
-0.3678964 0.05244045 -1.0415467 -0.11358182 -0.09939866 0.5285262 0.10166009 0.7718899
0.45478317 0.34080476 0.27446923 0.26042092 0.10127118 0.13813968 0.71929675 0.19937305
-0.24282831 0.35907736 -0.09589649 1.3005275 0.049252927 -0.37948522 0.6336904 -0.034394488
0.013357985 0.98765934 -1.4399413 0.4229555 -0.8639497 0.28434247 -0.78075856 0.33975998
-0.91679835 1.3871318 0.004505505 0.56553495 -1.1377633 -0.9042675 0.5415244 -0.08671182
0.051055342 1.0748206 -0.7743759 0.22998907 0.41942465 -1.1640124 0.6794319 0.46934378
-0.21142985 0.52924037 0.48018134 -0.92396885 0.7929894 -0.7539408 -0.24979751 0.96917796
0.4295351 -0.93132293 0.7967787 -0.7232958 0.11260721 -0.5648018 -1.1470978 0.075869836
0.12720732 -0.19458866 0.3471473 -0.62506306 0.8134297 -0.22796862 0.24531892 -0.4612082
-0.21296103 -1.4864942 0.7123408 -1.0184978 0.76804453 0.76870877 -0.6717109 0.48555246
-0.5293969 0.7602032 0.55557793 -0.7670823 -0.895119 0.44543475 0.12596428 -0.4955472
0.07392615 -0.55630887 -0.42626166 0.32564646 0.67320216 1.0158117 -0.13799177 1.4186325
0.20873442 0.7524166 0.36231062 0.05926086 0.8262501 0.3489137 0.293193 0.7352665
0.39327466 -0.5389633 0.25194547 0.09133086 0.02138063 -0.3171537 1.0743674 0.32479367
0.77958864 -0.5491886 0.3167702 0.32788473 0.52182925 0.26615703 -0.23926175 -0.35123786
1.1606156 -0.037168533 0.32977635 1.1880702 1.309075 -0.0060297637 -0.0021915867 1.1282678
0.21515852 1.3068278 1.3655543 0.66901404 -0.4963684 -0.302455 0.43476692 -0.04886458
-0.1527146 0.66943055 0.60768217 0.2763292 0.04630665 1.6434356 -1.1457206 0.054123722
0.08023414 0.040304773 0.684481 -0.06637724 0.82786345 -0.008866174 0.0062160688 -0.03811219
0.4730653 -1.2126871 0.20931605 0.5025121 0.19246916 -0.9947293 0.045010854 0.47312316

sequential/dense_2/MatMul f4 [13, 10]
00000000: 09a6 6e3e c7c3 a63f 59db 00bf 0abf dfbe
00000010: efdd 84bd 816f f4be 8147 d43c e039 98bd
00000020: 9b2e 30bf 19a8 10bf 5aea 1dbf 257e cf3e
00000030: bd54 ccbf e5a8 9abe b54d 343f e286 fbbe
00000040: a23d 8c3e c143 a1bf 7392 7cbf 64cf 75be
00000050: 9872 8d3c dfe0 1dbe d61f 56be 21ea 7ebe
00000060: 1fb7 d23d ab4d 03be 2845 783e 5275 4ebf
00000070: b797 08bf 5f50 353f c302 ad3e 8e63 cbbe
00000080: fceb 093f 0610 24bf 64bc 023e 9265 2abe
00000090: e658 543d 430f b7be 4fc7 9ebf 7528 393f
000000a0: a9cf d93e d307 5e3c e3be b2bf 7d5e 6bbe
000000b0: eb39 ce3e e707 02bf 8cc4 573d efc1 a4bd
000000c0: 1c4c cfbf 40f3 1c3f 51a4 92be 35c0 1dbf
000000d0: bbf4 4d3e e139 e7be b285 0f3f 921d 48bf
000000e0: 280e 38bf 41d2 d13e ce82 173f 4e16 acbf
000000f0: ea89 d6bf e580 31be 4ae2 c7bf f5d2 85bf
00000100: a088 553f ac1e 42bc a645 c1bf 382a 54bf
00000110: 080d ad3e 1200 65be 0960 21be 73ef bd3e
00000120: fdbe 0a3f 849b 8fbf eb0c 32bf 6867 343f
00000130: 57af 60be d8ff 76be 9e2b 5abf d4a9 c03e
00000140: 9f9a c13e 1b0a 31bf 1ea6 2b3f e27a 303f
00000150: d439 26be a481 42bd 7dce af3e a012 183f
00000160: 0fb4 91be 9bd0 abbe ee41 76bf cc67 f9bf
00000170: 8020 05be 5e99 74bf 2218 b13e e0dd 03be
00000180: 56c4 bcbf 6aa5 2cbd 98dc 143f c6b8 8d3f
00000190: f5f2 ab3e 96bd 49bf 15db 2d3e 1e7e 91be
000001a0: 91bb 01bf b333 20bf 221b 51be 13a6 8b3e
000001b0: 1170 593f e891 e8bf 06e4 3cbf ce52 3ebe
000001c0: f58b ec3d bf60 533f 380d 64bf 6803 233f
000001d0: 4e57 30bf 8cf9 90bd 08e1 433f 826c e23c
000001e0: 715b 743f 3e66 9c3e ab87 f0be 238a c13d
000001f0: 9793 f8be 8e85 bf3e ac88 00bf 0835 373f
00000200: a576 da3d 7bcd b43e
0.23305525 1.3028497 -0.503347 -0.4370044 -0.06487643 -0.4774132 0.025913002 -0.07432914
-0.68821114 -0.56506497 -0.6168572 0.40525928 -1.596336 -0.3020698 0.7043107 -0.49126345
0.27390772 -1.2598802 -0.98660964 -0.24004894 0.017266557 -0.15417813 -0.20910582 -0.24894
0.10288834 -0.12822597 0.24245131 -0.80647767 -0.533565 0.7082576 0.3379117 -0.39724392
0.5387571 -0.6408695 0.12767178 -0.16640308 0.051842593 -0.3575383 -1.2404574 0.7232736
0.42541245 0.01355167 -1.3964504 -0.22985263 0.40278563 -0.5079331 0.052677676 -0.080448024
-1.6195102 0.6130867 -0.28640988 -0.6162141 0.20112889 -0.45161346 0.5606338 -0.7817012
-0.718966 0.40980724 0.5918397 -1.3444307 -1.6760838 -0.17334326 -1.5615933 -1.0455004
0.834116 -0.011848133 -1.509938 -0.8287692 0.33799005 -0.22363308 -0.15759291 0.37096748
0.54197675 -1.1219335 -0.6955096 0.70470285 -0.21941887 -0.24121034 -0.85222805 0.3762957
0.3781328 -0.69156045 0.6705035 0.68937504 -0.16232997 -0.047486916 0.34337226 0.5940342
-0.28457686 -0.3355759 -0.9619435 -1.9484801 -0.13000679 -0.9554652 0.34588724 -0.12877607
-1.4747417 -0.04214994 0.581491 1.1072013 0.335838 -0.7880491 0.16978104 -0.28416532
-0.5067683 -0.62578887 -0.20420507 0.27275142 0.84936625 -1.8169527 -0.73785436 -0.18586275
0.11550132 0.825695 -0.8908267 0.6367707 -0.68883216 -0.07078847 0.76515245 0.027639631
0.9545203 0.30546755 -0.46978506 0.094501756 -0.48550102 0.37406582 -0.50208545 0.71565294
0.10667161 0.3531302
