Hand Detection App/model/keypoint_classifier/keypoint_classifier.tflite (tflite, 6808 bytes, 6 tensors)

sequential/dense/BiasAdd/ReadVariableOp f4 [20]
-0.39465922 0.2876794 -0.07043582 0.03766957 -0.33396658 0.32395822 -0.37047032 -0.25841063
0.2516935 0.4226419 -0.2243322 0.102654226 -0.17732255 0.029628951 0.517282 0.0
-0.14078638 0.20284192 -0.393674 0.054675497
00000000: c610 cabe b74a 933e a840 90bd 684b 1a3d
00000010: abfd aabe dadd a53e 49ae bdbe 664e 84be
00000020: f8dd 803e 8564 d83e 57b7 65be 613c d23d
00000030: 0b94 35be 6ab8 f23c 986c 043f 0000 0000
00000040: 4e2a 10be cbb5 4f3e a38f c9be 6af3 5f3d

sequential/dense_2/BiasAdd/ReadVariableOp f4 [10]
0.08531841 0.644766 0.283562 0.0018982898 -0.37627763 0.24391256 -0.0061934683 0.05563512
-0.783391 -0.109719604
00000000: 6bbb ae3d 620f 253f 0a2f 913e 09d0 f83a
00000010: 76a7 c0be 37c4 793e 94f2 cabb a7e1 633d
00000020: 508c 48bf acb4 e0bd

sequential/dense_1/BiasAdd/ReadVariableOp f4 [10]
0.30723155 0.82175803 0.20517263 0.3285586 0.27388117 0.1720192 0.4198174 0.3793531
0.16689532 0.6424443
00000000: 744d 9d3e bc5e 523f c618 523e d538 a83e
00000010: 273a 8c3e cd25 303e 4ef2 d63e 923a c23e
00000020: 9be6 2a3e 3b77 243f

sequential/dense/MatMul f4 [20, 42]
0.1930663 0.2896241 -0.29698265 -0.5807331 -0.13755387 -0.32090572 -0.51157606 -0.4359749
-0.5721727 -0.59817135 -0.39512438 -0.117568076 -0.31340867 -0.05775637 -0.052535154 0.071098275
-0.11678763 0.12563367 -0.30396196 0.05567568 -0.6942739 -0.022606073 -0.29284385 0.21250713
-0.122410335 0.252953 -0.2184137 0.010952861 -0.3934659 0.045225177 0.049963 0.21604674
0.17081468 0.15628935 0.0063805017 -0.033910036 0.22992904 -0.2091104 0.8381365 -0.1958309
0.7920587 -0.3647969 -0.020478994 0.06411043 0.4009415 -0.082332596 0.3206746 -0.18449701
0.566137 -0.29458156 0.06467232 -0.20440088 0.46600792 -0.17318182 0.24544558 -0.15017533
0.074794464 -0.14640391 0.12999019 -0.07262012 -0.34171215 -0.23088679 0.22224744 0.24847414
0.5644499 0.41863373 0.396874 0.39877632 -0.61768883 -0.059420493 -0.013228799 0.25728932
0.118834585 0.4551297 0.36412528 0.50257355 -0.5076809 -0.05373376 -0.10924111 0.21974006
0.23036656 0.4594591 0.09071523 0.57440376 0.13700706 0.20252883 0.043604426 0.28721735
-0.038161702 -0.17465454 0.051553413 -0.17077285 -0.15394668 -0.12829247 0.22655085 0.35319394
-0.010001343 0.3055095 0.20917276 0.08387931 -0.12539089 0.23782712 -0.18939221 -0.22875732
0.29016113 0.28896895 0.16884291 0.24784033 0.23712932 0.059377864 0.012744383 0.01035697
-0.16567108 0.06591366 0.2754408 0.11341858 -0.25789005 0.03045441 0.08239016 0.22674237
-0.051325995 -0.12560685 -0.30635667 0.29114512 0.12599121 -0.2039395 -0.14740959 0.10347983
-0.66972005 0.25320184 -0.5316506 0.26201916 -0.4157503 0.36278912 -0.24445379 0.33518112
0.114910044 0.26808316 0.086952746 0.2631125 -0.4004645 0.20183538 -0.4696646 -0.032742977
0.31156343 0.2200399 0.64059347 0.114971615 0.4941442 0.009395357 0.1998453 -0.03847653
0.5090042 0.27257317 0.7121498 -0.029988458 0.7425702 -0.31293294 0.50089025 -0.21104759
0.54565686 0.30626264 0.88346654 -0.014838379 1.2362697 -0.65039194 1.1206135 -0.662471
-0.21946597 0.29931617 -0.4243735 -0.33221492 -0.45771536 -0.41327325 -0.3440685 -0.20231003
-0.04718664 -0.19777764 -0.45345062 -0.35517925 -0.3019003 0.0013335876 -0.15669017 0.23625173
0.29112083 0.30967382 -0.74227166 -0.25223672 -0.7400367 -0.009690301 -0.6438997 0.30192298
-0.55819374 0.29388234 -0.2744054 -0.24877281 -0.561187 -0.14317091 -0.52975667 0.26821917
-0.79159355 0.25405434 0.06593127 -0.26351973 -0.23392756 -0.03507474 -0.0045608585 0.058665078
0.07752627 -0.019837715 0.058729112 -0.21503048 0.50158936 0.18408358 0.48525786 0.088530354
0.8001304 0.14209543 1.1429428 0.13423632 0.3484239 -0.07655377 0.59346503 0.008289729
0.5485537 -0.15323263 0.4390127 -0.13052614 0.05620942 -0.096537635 0.5873888 -0.0991285
0.36332726 -0.30490515 0.5389769 -0.10939911 -0.5366977 -0.14032246 -0.22588992 -0.14326592
-0.34468743 -0.123221084 -0.29392114 -0.1550338 -0.38133913 -0.00818982 -0.5248576 -0.13352168
-0.68621916 -0.006720332 -1.0208138 0.0049207904 0.06797141 0.0966441 -0.3435403 -0.38576654
00000000: 2cb3 453e 9c49 943e 1c0e 98be edaa 14bf
00000010: ecda 0cbe c14d a4be a6f6 02bf 1a38 dfbe
00000020: e979 12bf c221 19bf be4d cabe 88c7 f0bd
00000030: 1a77 a0be f291 6cbd 1a2f 57bd f99b 913d
00000040: 5a2e efbd 1da6 003e e7a0 9bbe 2f0c 643d
00000050: efbb 31bf 5f30 b9bc a1ef 95be 789b 593e
00000060: 45b2 fabd 0e83 813e d7a7 5fbe a173 333c
00000070: 5d74 c9be 093e 393d 01a6 4c3d 5b3b 5d3e
00000080: 0bea 2e3e 510a 203e 8713 d13b 40e5 0abd
00000090: 8572 6b3e 0921 56be 1d90 563f e587 48be
000000a0: 5cc4 4a3f a9c6 babe 90c3 a7bc 544c 833d
000000b0: 3448 cd3e fe9d a8bd 762f a43e c9ec 3cbe
000000c0: 5bee 103f 65d3 96be ec72 843d 774e 51be
000000d0: 9798 ee3e 9356 31be 1656 7b3e 90c7 19be
000000e0: d72d 993d e8ea 15be 261c 053e dcb9 94bd
000000f0: e5f4 aebe 966d 6cbe d594 633e 0170 7e3e
00000100: ca7f 103f 2957 d63e 1233 cb3e 692c cc3e
00000110: db20 1ebf e762 73bd 9bbd 58bc 6dbb 833e
00000120: 8c5f f33d c306 e93e a16e ba3e a9a8 003f
00000130: 60f7 01bf ee17 5cbd ceb9 dfbd 8a03 613e
00000140: 36e5 6b3e 393e eb3e e8c8 b93d 200c 133f
00000150: 944b 0c3e b863 4f3e 8e9a 323d 270e 933e
00000160: 724f 1cbd a4d8 32be ac29 533d 14df 2ebe
00000170: 33a4 1dbe 1a5f 03be f2fc 673e d6d5 b43e
00000180: acdc 23bc be6b 9c3e 6231 563e eac8 ab3d
00000190: 7866 00be f488 733e 08f0 41be 5c3f 6abe
000001a0: 0090 943e bdf3 933e 28e5 2c3e dbc9 7d3e
000001b0: 07d2 723e 3436 733d d1cd 503c 48b0 293c
000001c0: aea5 29be befd 863d 9406 8d3e 0048 e83d
000001d0: 2a0a 84be 877b f93c 2cbc a83d 272f 683e
000001e0: 353b 52bd 159f 00be c8da 9cbe f910 953e
000001f0: d703 013e 84d5 50be 8af2 16be 3ced d33d
00000200: c672 2bbf aca3 813e 411a 08bf 6027 863e
00000210: 39dd d4be 7fbf b93e 1852 7abe dc9c ab3e
00000220: f555 eb3d 3242 893e 4814 b23d aeb6 863e
00000230: af09 cdbe efad 4e3e e177 f0be 801d 06bd
00000240: 3e85 9f3e 2452 613e effd 233f 3d76 eb3d
00000250: 7800 fd3e fcee 193c 3fa4 4c3e 9199 1dbd
00000260: 194e 023f b68e 8b3e 734f 363f 5baa f5bc
00000270: 1519 3e3f bf38 a0be 583a 003f dc1c 58be
00000280: 2bb0 0b3f 75ce 9c3e dd2a 623f ac1c 73bc
00000290: 163e 9e3f 1680 26bf 4370 8f3f b397 29bf
000002a0: b0bb 60be f83f 993e 7c47 d9be 1318 aabe
000002b0: ab59 eabe 8d98 d3be bf29 b0be 5c2a 4fbe
000002c0: c746 41bd 3986 4abe ae2a e8be 0eda b5be
000002d0: ad92 9abe c6cb ae3a 6373 20be f9eb 713e
000002e0: ca0d 953e 918d 9e3e 8405 3ebf 2c25 81be
000002f0: 0c73 3dbf 11c4 1ebc 9cd6 24bf a695 9a3e
00000300: c9e5 0ebf bf77 963e dd7e 8cbe 4dbe 7ebe
00000310: f4a9 0fbf 659b 12be 229e 07bf 0654 893e
00000320: e0a5 4abf 6913 823e f906 873d 0fec 86be
00000330: b58a 6fbe 88aa 0fbd 4173 95bb cb4a 703d
00000340: 18c6 9e3d b482 a2bc f08d 703d f330 5cbe
00000350: 2968 003f 6880 3c3e b873 f83e 674f b53d
00000360: 59d5 4c3f 7781 113e f34b 923f 3f75 093e
00000370: 9e64 b23e 39c8 9cbd 53ed 173f a5d1 073c
00000380: 046e 0c3f 04e9 1cbe 46c6 e03e a5a8 05be
00000390: d93b 663d 86b5 c5bd 1d5f 163f e203 cbbd
000003a0: 0806 ba3e 871c 9cbe 64fa 093f a40c e0bd
000003b0: 0565 09bf b1b0 0fbe b04f 67be 4db4 12be
000003c0: df7a b0be 565b fcbd d57c 96be 2ec1 1ebe
000003d0: e23e c3be 982e 06bc 115d 06bf e8b9 08be
000003e0: 0fac 2fbf 3b36 dcbb 07aa 82bf 953e a13b
000003f0: 9834 8b3d 58ed c53d 84e4 afbe 3183 c5be

sequential/dense_1/MatMul f4 [10, 20]
0.21098879 0.27185002 -0.36859033 0.26830742 0.524389 0.6826132 -0.2637306 -0.15112524
-0.57054293 0.4522006 0.5300694 -0.11497648 -0.43502045 0.8505099 -0.6643923 -0.049517483
-0.7507084 -0.4063594 0.36012995 0.8718746 0.44423833 0.91644585 -0.31215915 0.5965989
-0.17022246 0.1228984 -0.4995884 0.1388012 0.7939564 1.1951504 -0.16143322 -0.23522054
-0.4575752 -0.18914808 0.7881849 0.43772757 0.080335096 -0.27250043 0.2377683 0.03180628
0.030814858 0.62211293 0.09004946 0.17790963 -0.71506435 0.14108202 -0.476649 0.031382956
0.11546256 0.13104802 -0.2440823 0.65449697 -0.6433145 0.24930461 0.9416585 0.062059224
0.9900031 0.5006967 0.1227005 -0.0056501008 -0.120264895 -0.41718704 0.14376503 0.120627254
0.5358556 0.31456682 0.718081 -0.008974059 0.643387 0.006594365 -0.3189632 -0.1230017
1.241749 -0.95727146 0.21563686 0.1481272 0.38319376 0.15596376 0.024746723 0.30180943
0.023014227 -0.5583915 0.10725578 0.36054453 -0.40139827 -0.19874358 -0.3984317 0.726382
0.16547768 -0.45889834 1.2701766 0.8900235 -0.2044151 -1.0650159 -0.23424363 -0.20349526
0.23080169 0.2307281 0.26493958 0.11839265 0.78171563 0.039811186 -0.12549123 0.47218594
0.6747083 -1.4119561 0.4076627 -0.13776314 0.48903856 -0.44220415 -0.28728005 -0.072747946
0.51872885 0.05767945 -0.83823526 0.23298734 0.9528438 -0.8590444 0.8323233 -0.34417596
-0.5735263 0.7170906 0.12968849 0.057834193 -0.037241142 0.62389874 -0.089403376 0.2939096
-0.0070209736 0.4140945 0.0048277685 0.27213156 0.26162073 1.4592407 0.83199954 -0.31348136
-0.07938388 0.97072613 -0.43140712 0.94744074 -0.020689007 -0.47285625 -0.44085446 0.10611298
-0.5485841 0.22865696 -0.27422324 1.0823803 1.2479184 -0.07707276 0.26215416 0.46493995
-0.18971899 -0.24442598 0.21937053 0.2249738 0.34223688 0.16059898 0.054613687 0.16993903
-0.014077671 -0.8050929 0.23157628 0.73227984 -0.042377174 0.22685109 -0.14676449 0.32063115
0.14352152 -0.79331714 0.9622165 0.9168185 0.20710954 0.19559303 0.17720236 -0.13353667
0.35288477 1.0081116 0.17214255 -0.11712053 0.94481564 -0.34148535 -0.23412448 0.91908574
0.3513501 -0.19171672 0.7888382 -0.0887908 0.18988985 -0.585797 0.039393976 0.034380477
-0.42125598 -0.3117193 0.4860788 -0.23080947 0.78270966 -0.22147273 1.1156218 -0.60778636
00000000: 720d 583e ed2f 8b3e dfb7 bcbe 975f 893e
00000010: 5c3e 063f bdbf 2e3f b207 87be 93c0 1abe
00000020: 1a0f 12bf d686 e73e a1b2 073f ca78 ebbd
00000030: 00bb debe 04bb 593f 9d15 2abf d8d2 4abd
00000040: 6d2e 40bf 570e d0be f462 b83e 2c33 5f3f
00000050: 3573 e33e 329c 6a3f 53d3 9fbe b5ba 183f
00000060: cc4e 2ebe 28b2 fb3d 0dca ffbe e721 0e3e
00000070: ba40 4b3f b0fa 983f c04e 25be a7dd 70be
00000080: 4c47 eabe 09b0 41be 7cc6 493f d41d e03e
00000090: ba86 a43d 2d85 8bbe 8979 733e 4d47 023d
000000a0: 716f fc3c cb42 1f3f da6b b83d f12d 363e
000000b0: 750e 37bf ce77 103e 560b f4be 6a8b 003d
000000c0: a277 ec3d 7431 063e b6f0 79be 1d8d 273f
000000d0: 42b0 24bf b549 7f3e 8810 713f d031 7e3d
000000e0: d870 7d3f a92d 003f 664a fb3d 7b24 b9bb
000000f0: 714d f6bd 8a99 d5be 2437 133e 6c0b f73d
00000100: d52d 093f e70e a13e 28d4 373f ee07 13bc
00000110: 03b5 243f 8b15 d83b 254f a3be 51e8 fbbd
00000120: a2f1 9e3f be0f 75bf e9cf 5c3e a8ae 173e
00000130: f931 c43e f7b4 1f3e a4b9 ca3c c486 9a3e
00000140: 5588 bc3c bff2 0ebf eba8 db3d 4b99 b83e
00000150: 1384 cdbe 7083 4bbe 3dff cbbe 2cf4 393f
00000160: fb72 293e b9f4 eabe 2695 a23f 95d8 633f
00000170: 3152 51be 7152 88bf 90dd 6fbe 1061 50be
00000180: 4757 6c3e fd43 6c3e 29a6 873e d877 f23d
00000190: 841e 483f 0e11 233d c680 00be 5bc2 f13e
000001a0: afb9 2c3f faba b4bf 2ab9 d03e c811 0dbe
000001b0: 4363 fa3e 9568 e2be 5f16 93be e0fc 94bd
000001c0: 6acb 043f 4941 6c3d 9696 56bf 3c94 6e3e
000001d0: 92ed 733f 55ea 5bbf 2413 553f d537 b0be
000001e0: 9fd2 12bf 4093 373f 0fcd 043e 8ce3 6c3d
000001f0: 2b8a 18bd d4b7 1f3f 1e19 b7bd 527b 963e
00000200: 3210 e6bb 3204 d43e 4232 9e3b d454 8b3e
00000210: 27f3 853e 66c8 ba3f ecfd 543f a180 a0be
00000220: 0494 a2bd 8281 783f 65e1 dcbe 7a8b 723f
00000230: fe7b a9bc 371a f2be adb7 e1be c351 d93d
00000240: 0270 0cbf 0d25 6a3e fd66 8cbe 708b 8a3f
00000250: cabb 9f3f 53d8 9dbd 1239 863e 9c0c ee3e
00000260: b245 42be ce4a 7abe aba2 603e 885f 663e
00000270: ac39 af3e 0f74 243e 9ab2 5f3d 7f04 2e3e
00000280: 08a6 66bc 911a 4ebf 5522 6d3e b176 3b3f
00000290: b093 2dbd a74b 683e 6e49 16be c429 a43e
000002a0: 4ef7 123e d516 4bbf d253 763f 9eb4 6a3f
000002b0: 8614 543e 8a49 483e 8974 353e d6bd 08be
000002c0: 50ad b43e cd09 813f 2346 303e e3dc efbd
000002d0: 70df 713f 2bd7 aebe 54be 6fbe 3449 6b3f
000002e0: 29e4 b33e 6351 44be 4df1 493f f3d7 b5bd
000002f0: 7c72 423e cbf6 15bf 945b 213d 8bd2 0c3d
00000300: ddae d7be ac99 9fbe 52df f83e 5159 6cbe
00000310: a95f 483f bfc9 62be b2cc 8e3f e397 1bbf

sequential/dense_2/MatMul f4 [10, 10]
-0.018778317 0.58132267 0.7088821 -0.8354539 -0.46514085 -0.008964573 0.9339414 -0.57402015
-0.48185873 -0.40153456 -0.18390574 0.9075982 -0.31326643 0.019128706 -0.67144996 -0.8232063
0.301666 0.52067167 -0.70192546 -1.241897 0.0131038 -0.3106155 -0.36394852 0.32092217
0.27186304 -0.6068509 0.34695402 0.3605219 0.22960015 -1.0492524 0.010755223 -1.0398309
-0.33815047 0.77984387 0.42095885 -0.58794737 0.36549383 0.2207434 0.38741207 -1.0584632
0.019949595 -1.2313584 0.0074385474 -1.0913117 -0.35971063 -0.65700746 1.0549133 0.34487072
0.52288604 -0.653033 -0.180907 -0.46993905 -0.096184835 0.056668893 -0.327144 0.66182786
-0.44402823 -0.5399785 -1.1701764 0.69156456 -0.4078082 0.21620199 0.46284312 -1.3856161
0.34566638 0.21205461 -1.5393417 0.73096466 0.21423222 0.22301234 0.9319836 0.13094234
-0.84407234 -0.8392576 -0.04746546 -0.019918576 0.22173524 -1.0563616 0.15022166 0.6337374
-0.63662475 -0.18117787 -0.208427 0.37535846 -0.5622878 0.7830277 -0.37684363 -0.17652926
-0.10327463 0.49130747 -0.6545685 0.06837125 0.9019703 0.13847482 -0.017494258 -0.7386793
-0.094156854 0.1363001 0.7046797 0.035803158
00000000: fcd4 99bc 90d1 143f 4c79 353f 4fe0 55bf
00000010: f126 eebe 25e0 12bc c916 6f3f fcf2 12bf
00000020: 30b6 f6be f095 cdbe c951 3cbe 5b58 683f
00000030: 7564 a0be ceb3 9c3c 25e4 2bbf a6bd 52bf
00000040: f773 9a3e bd4a 053f 63b1 33bf 7bf6 9ebf
00000050: 52b1 563c ff08 9fbe 7657 babe e94f a43e
00000060: a231 8b3e 955a 1bbf f5a3 b13e 5496 b83e
00000070: 4d1c 6b3e e74d 86bf ad36 303c 2e19 85bf
00000080: 0f22 adbe d9a3 473f eb87 d73e b883 16bf
00000090: 0222 bb3e 8f0a 623e e05a c63e b97b 87bf
000000a0: 556d a33c 279d 9dbf 0fbf f33b 1ab0 8bbf
000000b0: fe2b b8be a431 28bf 6607 873f e592 b03e
000000c0: dcdb 053f 2c2d 27bf af3f 39be da9b f0be
000000d0: 8efc c4bd a41d 683d 6b7f a7be 8d6d 293f
000000e0: ab57 e3be 083c 0abf 57c8 95bf 600a 313f
000000f0: 3dcc d0be 0e64 5d3e c6f9 ec3e de5b b1bf
00000100: 2ffb b03e d824 593e 2609 c5bf 8020 3b3f
00000110: b15f 5b3e 595d 643e 7a96 6e3f c015 063e
00000120: 2015 58bf 96d9 56bf 246b 42bd 482c a3bc
00000130: 900e 633e db36 87bf b5d3 193e 9d3c 223f
00000140: d7f9 22bf b186 39be e36d 55be fc2e c03e
00000150: 18f2 0fbf 8174 483f a6f1 c0be 16c4 34be
00000160: a681 d3bd a78c fb3e cd91 27bf 3a06 8c3d
00000170: 87e7 663f 58cc 0d3e 1e50 8fbc 161a 3dbf
00000180: 4fd5 c0bd 4192 0b3e e465 343f 55a6 123d
