Hand Detection App/model/keypoint_classifier/keypoint_classifier.tflite (tflite, 6940 bytes, 6 tensors)

sequential/dense/BiasAdd/ReadVariableOp f4 [20]
0	0xbf0089cc	-0.5021026
1	0xbe00f6a7	-0.1259409
2	0xbdf96d8e	-0.12179099
3	0xbd82ba28	-0.06383163
4	0xbf10b5dc	-0.56527495
5	0xbe087fab	-0.13329951
6	0xbf3bedc4	-0.73409677
7	0x3f148150	0.58009815
8	0xbe9791e2	-0.29603487
9	0xbf11f1ac	-0.57009387
10	0x3e1332fa	0.14374915
11	0xbf5b8bb8	-0.8576007
12	0xbd391c01	-0.045192722
13	0x3dc0fd8a	0.09423359
14	0x3d4f52ca	0.050616063
15	0xbededeb5	-0.43529287
16	0xbf61e8cd	-0.8824585
17	0x3c4329b4	0.011911798
18	0x3d07f4d2	0.033192463
19	0x3e438d80	0.19096947

sequential/dense_2/BiasAdd/ReadVariableOp f4 [13]
0	0xbf25a22c	-0.6470058
1	0x3f95dfa4	1.1708875
2	0xbe89a580	-0.2688408
3	0xbe73ecf3	-0.23820858
4	0x3f0f9cb2	0.56098473
5	0xbef66bae	-0.48129028
6	0x3d8ae63c	0.06782195
7	0x3e3efe60	0.18651724
8	0xbe73e901	-0.23819353
9	0xbe46b4c8	-0.194049
10	0xbe5e3995	-0.21701653
11	0xbe869c8d	-0.26291314
12	0xbe711aa9	-0.23545326

sequential/dense_1/BiasAdd/ReadVariableOp f4 [10]
0	0x3f3f12b6	0.74637926
1	0x3e78e0a2	0.2430444
2	0x3e9bfa9c	0.30464637
3	0x3f203678	0.6258311
4	0xbee7855f	-0.45218942
5	0x3e97787c	0.2958411
6	0x3f79c29e	0.9756259
7	0x3e043778	0.12911785
8	0xbe4d299c	-0.20035404
9	0x3f252117	0.64503616

sequential/dense/MatMul f4 [20, 42]
0	0xbe21bf8b	-0.15795724
1	0x3ddf5504	0.10904887
2	0xbf44e094	-0.7690518
3	0xbf39fabe	-0.7264823
4	0xbf2a16ce	-0.6644105
5	0xbe61efb0	-0.2206409
6	0xbeb43506	-0.35196704
7	0xbe82db0b	-0.25557742
8	0xbe67a6e3	-0.22622256
9	0xbe9ad219	-0.30238417
10	0x3de1d93b	0.110277615
11	0xbe57b90a	-0.2106668
12	0xbea5e55d	-0.32401553
13	0x3c168b04	0.009188417
14	0xbee6d329	-0.45082977
15	0x3df69fc0	0.12042189
16	0xbed1ee64	-0.4100219
17	0x3e205349	0.15656771
18	0x3f45d3bd	0.7727621
19	0xbd30f7fd	-0.04320525
20	0xbea4b849	-0.32171848
21	0xbdab1dce	-0.08355294
22	0xbe047560	-0.129354
23	0x3d7641c7	0.060121324
24	0x3d5b4034	0.053528026
25	0x3d7e975d	0.06215607
26	0x3f849202	1.0357058
27	0xbed445b3	-0.41459426
28	0xbe1d1be6	-0.15342674
29	0xbd999e94	-0.075009495
30	0xbe8e51ae	-0.27796692
31	0xbdc580d2	-0.09643711
32	0x3e8800e2	0.26563174
33	0x3cf4085f	0.029789148
34	0x3f5b2248	0.85599184
35	0xbdb38625	-0.087658204
36	0x3e177d33	0.14793853
37	0xbcc47021	-0.023979248
38	0x3e11fa3d	0.14255615
39	0x3cd2afee	0.025718655
40	0x3d9036ff	0.0704174
41	0xbc77f816	-0.015134832
42	0xbe4ee8a6	-0.20205936
43	0x3e401a2c	0.18759984
44	0x3f3cb5f5	0.73715144
45	0xbf47434c	-0.7783706
46	0x3f25d367	0.647757
47	0xbef01788	-0.46892953
48	0x3ed17089	0.4090617
49	0xbd96bda4	-0.0736039
50	0x3eae0d0b	0.33994326
51	0x3dbeb9d8	0.09312791
52	0xbedb5feb	-0.42846617
53	0x3e276cfc	0.16350168
54	0xbe8b7151	-0.2723489
55	0x3e9ab22b	0.30214056
56	0xbe4f877a	-0.20266524
57	0xbcbd863e	-0.0231353
58	0x3d42056c	0.047368452
59	0x3e560048	0.20898545
60	0xbeec7414	-0.4618231
61	0x3ed4cbc3	0.41561708
62	0xbea4b4a4	-0.32169068
63	0x3e8943b1	0.26809457
64	0xbe887d28	-0.26657987
65	0x3d0a2de5	0.033735175
66	0xbebf18a2	-0.3732348
67	0xbdce792d	-0.10081706
68	0xbf287405	-0.6580203
69	0x3e9cfea9	0.3066304
70	0xbe83ebf2	-0.2576595
71	0x3e71d7ba	0.2361745
72	0xbe816b38	-0.25277114
73	0xbda696ca	-0.081342295
74	0x3d3b47de	0.045722835
75	0x3e483da4	0.19554764
76	0xbf052377	-0.5200724
77	0x3ee37da6	0.444318
78	0xbe992559	-0.29911307
79	0x3e21f924	0.15817696
80	0xbdf02c74	-0.11727229
81	0x3ecf6f04	0.40514386
82	0xbeb397e3	-0.35076818
83	0x3d01053e	0.03149914
84	0xbcc12910	-0.02357915
85	0x3d4fb2c0	0.05070758
86	0xbf453c53	-0.7704517
87	0x3e572736	0.21011052
88	0xbed6ae9c	-0.4193009
89	0x39b8a55e	0.00035218423
90	0xbef7b6be	-0.4838161
91	0xbd301c7f	-0.042995926
92	0xbf0f353f	-0.5594062
93	0x3c13a45c	0.009011354
94	0xbf34dc41	-0.7064858
95	0x3ca45d97	0.020064158
96	0xbd9f6e45	-0.07784704
97	0x3d06580c	0.03279881
98	0x3e6c9198	0.23102415
99	0xbdfc6f5c	-0.123259276
100	0x3f70aeea	0.940169
101	0xbe5078ce	-0.20358583
102	0xbf22036e	-0.63286483
103	0xbde1c32b	-0.110235535
104	0xbdf7fdb4	-0.12108937
105	0xbcec2cee	-0.028830018
106	0xbdf0d7c4	-0.11759904
107	0xbd261806	-0.040550254
108	0xbe768ee6	-0.24077949
109	0x3be3a519	0.0069471714
110	0xbdfb7c1f	-0.122795336
111	0xbe31b408	-0.17353833
112	0xbd56faee	-0.0524854
113	0xbdb8586c	-0.0900124
114	0x3d6dab44	0.05802466
115	0x3dc19107	0.0945149
116	0x3e3c4ded	0.18389101
117	0x3e32e097	0.17468487
118	0xbe03d414	-0.1287387
119	0xbefce33a	-0.4939211
120	0x3f01752a	0.50569403
121	0xbe3d9e09	-0.18517317
122	0x3eae3fa6	0.34032935
123	0xbe136cfd	-0.14397044
124	0x3e8ab027	0.2708752
125	0x3dbefb40	0.09325266
126	0x3cfb5290	0.030679017
127	0x3e41e090	0.1893332
128	0x3e54151e	0.2071118
129	0x3f7e5be2	0.9935895
130	0x3d8a73d9	0.067603774
131	0x3f39afe9	0.7253404
132	0x3e292f3e	0.16521928
133	0x3ef0f464	0.47061455
134	0x3e86abd5	0.26302972
135	0x3ecd6ab8	0.40120482
136	0xbee87c72	-0.45407444
137	0x3e9ea58d	0.3098568
138	0xbe1b3363	-0.15156321
139	0x3e04de28	0.12975371
140	0xbda38c90	-0.079857945
141	0x3b10f889	0.0022120795
142	0xbd6551cd	-0.055986214
143	0xbdfb6512	-0.12275137
144	0xbf2311b3	-0.6369888
145	0x3e8bee80	0.273304
146	0xbe58eb9e	-0.21183631
147	0x3e201142	0.15631583
148	0xbe3a73b6	-0.18208203
149	0xbd55da8b	-0.052210372
150	0xbeac7d11	-0.33689168
151	0xbce28db6	-0.027655464
152	0xbf7474a1	-0.9549046
153	0x3e334b11	0.17509104
154	0xbd0f20dd	-0.03494345
155	0x3d0da6f8	0.034583062
156	0x3d8872dd	0.066625334
157	0xbf03b5d3	-0.51449317
158	0xbd9fbf14	-0.07800117
159	0xbf3ccdca	-0.7375151
160	0xbef1e145	-0.4724218
161	0x3d2d7cb8	0.04235527
162	0xbcd986c8	-0.026553527
163	0xbc7978ff	-0.015226602
164	0xbe90668c	-0.28203237
165	0xbf1cf6e5	-0.6131423
166	0xbedc5e8b	-0.4304088
167	0xbf2996ff	-0.66246027
168	0xbe026c53	-0.12736635
169	0x3db48348	0.088141024
170	0x3f5d7828	0.8651147
171	0xbecc06d7	-0.39848968
172	0x3f289bba	0.6586262
173	0xbe24f4ba	-0.16108981
174	0x3f0dc75e	0.55382335
175	0xbda4cd04	-0.08046916
176	0x3f34e4bd	0.70661527
177	0x3c8ed744	0.017436631
178	0x3f05f722	0.5233022
179	0xbe5fa2f8	-0.21839511
180	0xbeb3520f	-0.35023543
181	0xbe11d068	-0.14239657
182	0xbf397939	-0.72450596
183	0x3c874dcb	0.016516587
184	0xbf3a32ef	-0.7273397
185	0x3da0c50a	0.07850082
186	0x3e6f2998	0.2335571
187	0xbe7815ec	-0.24227113
188	0x3d029aee	0.031886034
189	0xbd7a8fd0	-0.061172307
190	0x3c5213fd	0.012822148
191	0x3e277773	0.1635416
192	0xbe589563	-0.21150737
193	0x3e5a623c	0.21326536
194	0x3e5d00ca	0.21582332
195	0xbe7176f7	-0.23580538
196	0x3de066d1	0.10957111
197	0xbe07b1d8	-0.13251436
198	0x3ebeab56	0.37240094
199	0x3dda9446	0.10672812
200	0x3eb67c67	0.35641786
201	0x3dad5f74	0.08465472
202	0x3e0e3245	0.13886364
203	0xbe6fbf99	-0.23412932
204	0x3e3db390	0.18525529
205	0xbdc8710f	-0.09787189
206	0x3eef69c7	0.4676039
207	0xbcf7279d	-0.030170256
208	0x3f1dfdb2	0.61715233
209	0xbd9d17f2	-0.07670583
210	0x3e124308	0.14283383
211	0x3c415480	0.0117999315
212	0x3f315d94	0.69283414
213	0x3ecf6bf6	0.40512055
214	0x3efddf2d	0.49584332
215	0x3d8a92d7	0.06766289
216	0x3e9b9aec	0.30391634
217	0xbded0f27	-0.11575156
218	0x3db07cc0	0.08617544
219	0xbe07e007	-0.13269053
220	0x3f06f144	0.5271189
221	0x3cda1e36	0.026625734
222	0x3e63cb65	0.22245558
223	0x3d8f9850	0.07011473
224	0xbdaf2b5a	-0.085531905
225	0x3e1c3709	0.15255369
226	0xbd8d3387	-0.06894594
227	0x3e17f755	0.14840443
228	0x3f3cc6e0	0.7374096
229	0x3d7563ab	0.059909504
230	0xbe00f7b6	-0.12594494
231	0x3d4eca74	0.050486043
232	0xbe033e87	-0.12816821
233	0xbd23aa2e	-0.039957218
234	0xbe325581	-0.1741543
235	0xbdbdf3ff	-0.09275054
236	0x3e8c5fa5	0.2741672
237	0x3d7ff504	0.062489524
238	0xbee2d86d	-0.44305745
239	0xbc0fc06b	-0.008773903
240	0xbef48e66	-0.4776489
241	0xbe374bf3	-0.17900066
242	0xbe97844a	-0.29593116
243	0xbe5b57e8	-0.21420252
244	0xbf88b64d	-1.0680634
245	0x3d8a59a0	0.06755376
246	0xbf7d8237	-0.9902682
247	0x3daf0e0e	0.085476026
248	0xbf859b6b	-1.0438055
249	0xbce54b06	-0.027989876
250	0xbf8b3cb7	-1.0877904
251	0xbdbd4755	-0.09242121
252	0x3d920c3c	0.0713124
253	0xba97e300	-0.0011588037
254	0x3f71e20e	0.9448556
255	0x3f3d6341	0.73979574

sequential/dense_1/MatMul f4 [10, 20]
0	0xbdf27274	-0.118382365
1	0xbf5501ec	-0.8320606
2	0x3e0e51a1	0.13898326
3	0x3f04eff7	0.5192866
4	0xbc8ce396	-0.017198365
5	0x3e836ea9	0.25670364
6	0x3f23f56a	0.6404635
7	0xbe7483a2	-0.23878339
8	0xbe2a0a3d	-0.16605468
9	0x3e8fb7e2	0.2806998
10	0xbf53ceaa	-0.8273722
11	0x3daea358	0.08527249
12	0xbe9f6358	-0.3113048
13	0x3e84f739	0.25969866
14	0x3f190f1e	0.5978869
15	0x3d9961e3	0.074893735
16	0x3f120072	0.5703193
17	0xbb8cc13c	-0.0042954963
18	0x3ee57335	0.44814458
19	0x3e67b5b6	0.22627911
20	0x3e52249b	0.20521776
21	0x3da55411	0.08072675
22	0x3e40838b	0.1880018
23	0xbfa52df6	-1.2904651
24	0x3f11ef65	0.5700591
25	0x3f665a20	0.8998127
26	0x3ec9b487	0.39395544
27	0xbf44f400	-0.76934814
28	0x3f14af40	0.5807991
29	0x3dfdc66e	0.12391363
30	0xbf3ebd47	-0.74507564
31	0x3e829574	0.2550465
32	0xbd686237	-0.05673429
33	0xbf44644b	-0.76715535
34	0xbeaf1728	-0.34197354
35	0x3ee9c689	0.45659283
36	0x3ee8ee1a	0.45494157
37	0xbd8ee983	-0.069781326
38	0x3ef6b727	0.4818661
39	0x3e0f58ca	0.13998714
40	0x3e877b6b	0.26461348
41	0xbef3dbdf	-0.47628686
42	0x3f26993a	0.65077555
43	0x3f2732d2	0.6531192
44	0xbe3401d2	-0.1757882
45	0xbf8823f8	-1.0635977
46	0xbd93919e	-0.07205509
47	0x3e861b05	0.2619249
48	0xbd680375	-0.056643922
49	0x3f2c9d54	0.67427564
50	0xbf0432ab	-0.51639813
51	0x3ef02276	0.46901292
52	0x3ef11650	0.47087336
53	0x3f0bcca7	0.5460915
54	0x3f5fee1c	0.874727
55	0xbdaed0ea	-0.08535941
56	0x3ee6a2b9	0.45046023
57	0xbacb6c88	-0.0015520016
58	0xbf474a17	-0.7784743
59	0x3cf23ff2	0.029571507
60	0xbf40b63e	-0.7527808
61	0xbe8eed97	-0.27915642
62	0x3eb72027	0.35766718
63	0x3f0b5538	0.5442691
64	0x3da8a286	0.08234124
65	0x3f5c43cd	0.86040956
66	0x3f1a570f	0.6028909
67	0xbe1ec82b	-0.15506046
68	0x3d41908f	0.047257002
69	0xbe492e86	-0.19646654
70	0x3f167933	0.58778685
71	0xbef50c22	-0.4786082
72	0xbe30eb92	-0.17277363
73	0xbee72e8e	-0.45152706
74	0xbcd96a6d	-0.026540006
75	0x3dc3fc56	0.09569614
76	0x3ee70878	0.4512365
77	0xbfa0f2ad	-1.2574059
78	0x3f38c6a2	0.7217809
79	0x3dd57b4f	0.1042391
80	0x3e896bf0	0.26840162
81	0x3f62346c	0.8836124
82	0xbe32e247	-0.1746913
83	0x3f701574	0.93782735
84	0x3dfc7fbc	0.12329051
85	0x3ea502da	0.32228738
86	0x3e0a51f3	0.13507824
87	0x3edf27f0	0.43585157
88	0x3ecb3e29	0.39695862
89	0xbe817724	-0.2528621
90	0x3f5bc3bf	0.8584556
91	0x3e8c7eb7	0.27440426
92	0x3eab1335	0.3341309
93	0x3ec45802	0.38348395
94	0x3ecefc43	0.40426835
95	0x3ec9446d	0.39310017
96	0x3e898743	0.2686101
97	0x3deafcec	0.11474022
98	0x3d7dfab5	0.06200667
99	0xbce103db	-0.027467659
100	0x3f8bdef3	1.0927414
101	0xbe2c47fc	-0.16824335
102	0x3f383bb3	0.71966094
103	0xbdecf1f4	-0.115695864
104	0x3df1271d	0.117750384
105	0xbf39c4d8	-0.72565985
106	0x3e8b80d9	0.2724674
107	0x3e003fde	0.12524363
108	0xbdeddc20	-0.11614251
109	0x3f2ffdd0	0.6874666
110	0xbecf9ec1	-0.40550807
111	0x3f55fd48	0.835896
112	0xbe70ea6c	-0.23526925
113	0x3e6ae75f	0.22939824
114	0x3ecf9980	0.405468
115	0x3ea9db06	0.33174914
116	0x3ea65769	0.32488564
117	0x3ebf6149	0.3737891
118	0xbf16961d	-0.58822805
119	0x3dc13f5d	0.09435914
120	0x3d944259	0.07239217
121	0xbeed295f	-0.46320626
122	0xbd8b7cd5	-0.06810919
123	0x3e6eb025	0.23309381
124	0xbe133641	-0.14376165
125	0xbdab6eee	-0.083707675
126	0x3ee99c6f	0.45627162
127	0x3fc746b4	1.5568452
128	0x3f186fdb	0.5954568
129	0x3d932506	0.07184796
130	0x3f1bd4c5	0.60871536
131	0xbca536c8	-0.020167723
132	0xbe5ef4c6	-0.21773061
133	0xbbfb33d9	-0.007666093
134	0xbf8b05b5	-1.0861117
135	0x3f71bf43	0.9443247
136	0x3de6f16a	0.11276515
137	0x3d83f92e	0.06444012
138	0xbd5f6b09	-0.054545436
139	0x3f8ad7d1	1.0847112
140	0x3f009907	0.502335
141	0xbcbabdda	-0.022795606
142	0x3ef83b49	0.4848273
143	0xbf7225c3	-0.9458887
144	0x3e74b25d	0.23896165
145	0xbdfcb6d6	-0.12339561
146	0x3e3ff2c3	0.1874495
147	0x3f196ce9	0.5993181
148	0x3f64ac53	0.89325446
149	0x3f0e9955	0.55702716
150	0x3f40aced	0.75263864
151	0x3f5ca911	0.86195475
152	0x3ea6aa95	0.3255202
153	0xbf2a271a	-0.66465914
154	0x3e130483	0.1435719
155	0x3e9732ac	0.29530847
156	0x3d823673	0.063580416
157	0x3d9881ca	0.0744663
158	0xbdb855dd	-0.09000752
159	0x3eb83dd4	0.3598467
160	0xbe34a3e5	-0.17640646
161	0x3f6bffa2	0.9218694
162	0xbe123398	-0.14277494
163	0x3ee471ad	0.44617978
164	0x3f7b5cda	0.98188555
165	0x3f1d1f3a	0.6137577
166	0x3e9108dc	0.28327072
167	0x3dc384df	0.095468275
168	0x3fa88d8c	1.3168197
169	0x3e369bb6	0.17832837
170	0x3f2519cb	0.6449248
171	0x3cbfcda1	0.023413481
172	0x3e9282bf	0.28615376
173	0x3eab6d1b	0.33481678
174	0x3d23c19b	0.03997956
175	0x3f6bea34	0.9215424
176	0x3e8e0dfb	0.2774504
177	0x3eef588c	0.46747243
178	0x3f230fa1	0.6369572
179	0x3ebb258e	0.3655209
180	0x3e409095	0.18805154
181	0x3f5e32ae	0.8679608
182	0x3f1f6d9a	0.62276614
183	0x3eecae2e	0.4622664
184	0xbf21070a	-0.62901366
185	0x3d17b139	0.037034247
186	0xbdc56cf8	-0.09639925
187	0x3f6f7f50	0.9355364
188	0xbf22b0e8	-0.6355119
189	0x3d503e32	0.050840564
190	0xbeb88030	-0.360353
191	0xbd152ba3	-0.03641857
192	0x3edafe50	0.4277215
193	0x3f8540df	1.0410422
194	0x3f1d34ab	0.6140849
195	0xbebba568	-0.36649632
196	0xbcd165f8	-0.025561318
197	0x3f54546d	0.82941324
198	0x3de040b6	0.10949843
199	0x3f0708ab	0.527476

sequential/dense_2/MatMul f4 [13, 10]
0	0x3e2e749e	0.17036673
1	0x3f256e15	0.64621097
2	0xbeff3586	-0.49845523
3	0x3e0f21f8	0.13977802
4	0xbda07ed7	-0.07836693
5	0xbf197d1d	-0.5995653
6	0x3e4377f1	0.19088723
7	0xbeaa80d7	-0.33301422
8	0x3f289f6f	0.65868276
9	0xbf27b10b	-0.6550452
10	0x3f0ee8f2	0.55824196
11	0x3e9ae0d3	0.30249652
12	0xbee8755a	-0.45402032
13	0x3f5d74d7	0.8650641
14	0xbfbd3d81	-1.4784395
15	0xbf11d866	-0.5697082
16	0xbe29e60e	-0.16591665
17	0xbf6a61c5	-0.91555434
18	0xbeef3848	-0.46722627
19	0x3e9704eb	0.2949594
20	0xbf6ce80c	-0.92541575
21	0xbed8cb4f	-0.42342612
22	0xbf85d47b	-1.0455469
23	0x3ce2c1c5	0.027680287
24	0x3ed3f0ce	0.41394657
25	0xbea2ed7b	-0.31821808
26	0x3eb666f6	0.35625428
27	0x3f15e166	0.58547056
28	0x3f0ee2e3	0.5581495
29	0xbc68ca1a	-0.014208341
30	0xbdb726f1	-0.08942974
31	0xbe5246ee	-0.2053487
32	0xbe942e49	-0.28941563
33	0x3e49b026	0.19696102
34	0x3f345a99	0.7045074
35	0xbe8bd330	-0.2730956
36	0xbfb0cae5	-1.3811918
37	0xbdbfd974	-0.09367648
38	0x3f19f2bb	0.60136
39	0x3f551524	0.83235383
40	0x3ed09bd9	0.40743902
41	0xbd2de417	-0.04245385
42	0xbe25a99f	-0.16177987
43	0x3f250674	0.6446297
44	0x3f0a5f20	0.540514
45	0xbe9d278a	-0.30694228
46	0x3ccf760c	0.025324844
47	0xbfef4493	-1.8692802
48	0x3ee1158d	0.43961754
49	0xbf6e09d2	-0.92983735
50	0x3ec0e1e5	0.37672344
51	0x3ea120fa	0.31470472
52	0x3f07ef00	0.5309906
53	0xbe35c8b2	-0.1775234
54	0x3da95718	0.08268565
55	0x3f25aad8	0.6471381
56	0xbfc7e967	-1.5618104
57	0x3f15493b	0.58314866
58	0xbe988cec	-0.29795015
59	0xbe8e9f3b	-0.27855858
60	0x3f030c6e	0.5119084
61	0xbe924cf4	-0.28574336
62	0x3f28e97d	0.65981275
63	0xbf26b9b9	-0.6512714
64	0xbe72a0e7	-0.23694192
65	0x3eef8952	0.46784455
66	0x3e04d45c	0.12971634
67	0x3d35fbc2	0.044429548
68	0xbed9d729	-0.42546967
69	0x3ef23c6c	0.47311723
70	0x3d43cd00	0.047802925
71	0x3f174edf	0.5910472
72	0xbe0bd587	-0.13655673
73	0xbec577bd	-0.38567916
74	0xbe736a1a	-0.23770943
75	0x3f0ab45c	0.54181457
76	0xbdb7b097	-0.08969229
77	0x3f3db9bc	0.74111533
78	0x3ecd0aac	0.40047204
79	0xbe2705f0	-0.16310859
80	0xbe99cb10	-0.30037737
81	0xbe89af5b	-0.26891598
82	0xbea1d2eb	-0.3160623
83	0xbea89a08	-0.32930017
84	0x3cb6c36e	0.022309985
85	0xbf0049d7	-0.5011267
86	0xbf7dc9f3	-0.99136275
87	0xbf62ab3c	-0.8854253
88	0x3e320aa9	0.17386879
89	0x3d2e9718	0.042624563
90	0xbf6adcd9	-0.91743237
91	0xbf6169ab	-0.8805186
92	0xbf3a2dea	-0.7272631
93	0xbca56d5f	-0.020193754
94	0x3dd6bdb0	0.10485399
95	0x3e1f9746	0.1558505
96	0xbf808843	-1.0041584
97	0xbe717311	-0.2357905
98	0xbe86b17c	-0.26307285
99	0xbe94b866	-0.29046935
100	0xbf2fd489	-0.6868368
101	0xbf6c7de8	-0.9237962
102	0xbefe67a6	-0.49688452
103	0x3df0aa05	0.11751179
104	0xbf070e00	-0.5275574
105	0xbebd3fc4	-0.36962712
106	0xbf6ab835	-0.9168733
107	0xbe8a6342	-0.27028853
108	0xbecaf3a6	-0.39639014
109	0xbf19c788	-0.60070086
110	0xbf5cb74f	-0.86217207
111	0xbe29402a	-0.16528383
112	0xbf388342	-0.72075284
113	0xbe323362	-0.17402413
114	0xbecf0838	-0.40435958
115	0xbf09d672	-0.5384284
116	0xbdfede92	-0.12444796
117	0xbf805faa	-1.0029194
118	0x3d85bc36	0.06530039
119	0xbf35c204	-0.7099917
120	0xbf80f251	-1.0073949
121	0xbf5a4b83	-0.8527147
122	0x3e579f51	0.21056868
123	0xbe5c5d00	-0.21519852
124	0xbeefa832	-0.4680801
125	0x3e4937de	0.19650218
126	0xbf4cfff3	-0.8007805
127	0xbe8acd88	-0.27109933
128	0xbf260736	-0.64854753
129	0xbf19519e	-0.5989016
