AI Club Hand Detection/model/keypoint_classifier/keypoint_classifier.tflite (tflite, 6632 bytes, 6 tensors)

sequential/dense/BiasAdd/ReadVariableOp f4 [20]
000000 13 21 bb bd a5 f3 54 bd 80 0d f0 3d 3e c3 23 bd
       -0.09137168 -0.05199017 0.11721325 -0.03998112
000010 ee 9f 3a 3d e2 63 fd bc e9 7a 22 3e 1b b9 18 bd
       0.045562677 -0.030931417 0.15867199 -0.037285905
000020 f0 0a d8 bd d5 92 62 3e 74 81 85 bd 59 9d 04 3e
       -0.10548961 0.22126324 -0.06518832 0.12950648
000030 ff 28 58 3d 7b f1 59 3d 61 95 35 bd 50 fb 7b 3d
       0.052773472 0.05320881 -0.044331912 0.061518967
000040 9e 38 a5 3e 35 be 1f bd d9 bf 97 3e e7 15 95 3e
       0.32269758 -0.038999755 0.29638556 0.29118273

sequential/dense_2/BiasAdd/ReadVariableOp f4 [6]
000000 27 c3 91 bc 4c 10 f8 3d ce 00 f7 3d d0 db 72 bb
       -0.017793251 0.121124834 0.120607 -0.0037057288
000010 4a 69 c6 3d f5 07 6c be
       0.09688051 -0.2304991

sequential/dense_1/BiasAdd/ReadVariableOp f4 [10]
000000 8c 35 ca 3d 8d 32 80 3e 3b 9a 2f 3e eb aa 53 bd
       0.098734945 0.25038567 0.17148678 -0.051676672
000010 03 54 bd bb 97 47 b1 3e 1a 0c 38 3e 1e 65 9b 3e
       -0.0057778372 0.3462493 0.17973366 0.30350584
000020 5c 6f 8c 3e c4 b5 cf 3d
       0.2742871 0.10142091

sequential/dense/MatMul f4 [20, 42]
000000 4e e1 23 be 50 e0 03 bd 7b 27 9e 3c 70 3a 90 be
       -0.16003916 -0.032196343 0.019305935 -0.28169584
000010 07 e6 8f 3e 20 be 1e be 6c 9c b6 3e 7e a5 96 3c
       0.28105184 -0.15502214 0.35666215 0.01838946
000020 f9 21 58 3e db f8 60 be 09 8f 0d bd 3c 54 d6 bc
       0.2110671 -0.21969931 -0.034560237 -0.026163213
000030 27 28 d4 bd 40 33 fc 3c 45 16 aa be 97 47 c0 be
       -0.10359221 0.030786157 -0.33220115 -0.3755462
000040 3b 51 85 be e4 fa c3 bd b8 bb 2a 3e 23 73 10 3e
       -0.26038536 -0.09569338 0.16673172 0.14106421
000050 45 6c e4 3c c2 9a 8c be c1 54 c6 3d 16 2b 40 be
       0.027883658 -0.2746182 0.09684134 -0.18766436
000060 79 05 09 3e 48 54 a2 bd 81 a8 de bd 0a 25 1e 3e
       0.13380994 -0.079262316 -0.10871983 0.15443817
000070 27 8a 85 be af c9 0b be d1 65 b4 be ec ac 15 be
       -0.26081964 -0.13651155 -0.3523393 -0.14616746
000080 56 b9 d9 3c 06 1d d4 be c9 45 cb be 06 ea 1c 3e
       0.026577633 -0.41428393 -0.3970168 0.15323648
000090 68 b3 c4 be 53 d1 c9 3e c2 25 74 be 0e 65 9d be
       -0.38418126 0.39417514 -0.23842528 -0.3074116
0000a0 eb 12 27 3e b2 48 6a 3d c0 2a 76 bc ae b1 3e be
       0.1631581 0.057198234 -0.015024841 -0.18622467
0000b0 03 e9 0e bf ee d1 92 bd b3 c6 15 be a4 5a c7 be
       -0.558243 -0.07168947 -0.14626579 -0.3893634
0000c0 a2 82 ef be d1 dd a8 be 66 b2 8d be b3 15 fb bd
       -0.46779352 -0.32981732 -0.2767517 -0.12259998
0000d0 e1 97 18 3d 80 31 cd 3c 6b d1 f3 bd f6 17 b7 be
       0.037254218 0.025048018 -0.11905178 -0.35760468
0000e0 d5 0a 13 be 0d 02 82 be f7 ef 84 3e f8 bf a2 bd
       -0.14359601 -0.2539219 0.2596433 -0.079467714
0000f0 ff ed 82 bd 3c 12 77 bd e5 74 c7 bc 45 32 5d be
       -0.063930504 -0.060320124 -0.024347732 -0.21601208
000100 6d 80 8f 3e 70 39 b5 be 44 ae 93 3e f2 2c 16 bd
       0.2802767 -0.35395384 0.28843892 -0.036663957
000110 5e 14 8c 3e 2e 2d 7f 3d 4d 78 9d 3e 78 01 c9 be
       0.2735929 0.062298946 0.30755845 -0.39258933
000120 11 bf dd 3e 83 e1 9b be 89 71 d3 3e 38 53 c8 be
       0.43309835 -0.3044549 0.41297558 -0.3912599
000130 f0 7b b9 3e 43 6e 0a be 29 51 d5 3d 33 07 82 be
       0.3622737 -0.13518624 0.10415871 -0.25396118
000140 ed 07 d5 3b d6 07 ff bd 0e 47 f5 3e d7 06 45 be
       0.006501189 -0.124526665 0.47905773 -0.1924089
000150 50 2f 2b 3d 1c ca 91 3e f5 9d 9d 3e 3e 06 18 3e
       0.041793168 0.2847451 0.30784574 0.14846131
000160 2c aa a7 3d 33 74 53 3d 8b 3b 52 3d ac 81 b9 bd
       0.081867546 0.051624488 0.051326316 -0.09057936
000170 37 8d 69 3d 10 6e 47 3e 6d 2d 2c bb da 2f e4 3c
       0.05701944 0.1947558 -0.0026272193 0.027854849
000180 7d fd d4 be 0e 7e ce 3e f7 16 5e 3d c8 58 06 3e
       -0.41599646 0.40330547 0.05422112 0.13119805
000190 fe 0c cc 3d cd 60 5c 3c 4f 80 68 be 2e da a3 3d
       0.099634156 0.0134508135 -0.22705196 0.08000599
0001a0 60 4c 89 bd 76 4e e2 3e 88 e5 1f be 53 68 e3 3d
       -0.067040205 0.44200486 -0.15614903 0.11103883
0001b0 33 15 6d be 5c e6 cf 3d 1e 38 07 bf c6 57 34 bd
       -0.23152618 0.101513594 -0.52820003 -0.04402902
0001c0 0d 74 04 bd 75 cf 34 3c 9c 0e db be b2 ff 8b bd
       -0.032337237 0.01103579 -0.42784584 -0.068358794
0001d0 1a 29 e5 be d9 68 ae 3e 21 f0 e5 be ec 40 de 3b
       -0.4475792 0.34064367 -0.44909766 0.0067826416
0001e0 53 ce a6 be 2a 9b 84 bc c0 35 c5 be 4b 1e a7 3e
       -0.32579288 -0.01618727 -0.3851757 0.326403
0001f0 a8 6a 07 bf c5 b9 aa 3d d0 3b 6e be db 87 9b be
       -0.5289712 0.08336214 -0.23265004 -0.30377087
000200 63 bd 2c 3e 77 3d da 3e 5b a5 83 3d 48 24 ad 3e
       0.1686912 0.4262502 0.064280234 0.33816743
000210 7d 4b a8 3e cc ec 51 bd a5 97 06 3d b0 be b4 3e
       0.32870093 -0.051251218 0.032859463 0.35301733
000220 e5 4c d9 bd e0 7f 2b 3d 84 d9 0a 3d 7a f3 08 3f
       -0.106103696 0.041869998 0.033898845 0.53496516
000230 f3 53 32 3e 80 f8 f6 3e a4 02 3c be 98 44 e9 3d
       0.17414837 0.48236465 -0.18360382 0.11390036
000240 71 2e bc 3e e6 08 fd 3e c6 36 86 3e 60 11 57 3e
       0.36754182 0.4942085 0.26213664 0.21002722
000250 b0 38 8a 3e 95 48 3f bc 70 9a e2 3c 77 79 b3 3e
       0.26996374 -0.01167502 0.027661532 0.35053608
000260 14 15 0e 3d 5d be b0 3b 87 e7 ad 3e 34 5a 0a 3d
       0.03468807 0.005393787 0.33965704 0.03377743
000270 7c a9 9f 3d a7 46 6b 3e e6 47 eb 3d 0e d3 8a 3e
       0.077959985 0.2297617 0.11488323 0.27114147
000280 9a b3 10 be f2 5f 10 bd d0 ae 38 bd 68 b4 ce bd
       -0.14131013 -0.03524775 -0.04508859 -0.100930035
000290 b0 ac 82 3e a5 60 7b be 1e 6e 38 bd 79 d4 86 be
       0.25522375 -0.24548586 -0.04502689 -0.2633398
0002a0 dc b4 6e be 7d c9 0b be d7 aa bb be bc 0f e9 be
       -0.2331118 -0.1365108 -0.36653778 -0.45519817
0002b0 39 aa 55 3e 9f 25 06 bf 3e be 3a 3e 92 4b 7f be
       0.20865716 -0.52401155 0.18236634 -0.24931172
0002c0 d5 5f 84 bd 4e 51 c7 be 79 38 f0 bd 8b 6d f1 be
       -0.06463591 -0.38929218 -0.11729521 -0.47153887
0002d0 0d 76 10 be 93 ba 52 be 33 62 c1 be e8 15 bd bd
       -0.14107533 -0.20578985 -0.37770233 -0.09232694
0002e0 38 9f 22 3d 99 f5 b3 be 0a 09 3e be b4 ad 1b 3d
       0.039702624 -0.35148314 -0.18558136 0.038007453
0002f0 2a 48 8c be ac ed f7 be ae 81 07 3e 0f cb 01 bf
       -0.27398807 -0.48423517 0.13233063 -0.5070047
000300 fa 3a 89 3d 95 d8 6c be 7c c0 fa 3d 80 ce 82 be
       0.06700702 -0.23129494 0.12243745 -0.25548172
000310 2d b5 9e 3d f8 85 82 bd c5 84 1c bd d0 9b 6a be
       0.077494 -0.06373209 -0.038212556 -0.22911
000320 42 d9 31 be a9 ea 01 be fb fc 34 3e 3b 5e 76 be
       -0.17368034 -0.12687172 0.1767463 -0.24059384
000330 79 61 58 bd 75 d5 10 bd 02 ca 58 be d0 7a cf 3d
       -0.052827332 -0.03535982 -0.2117081 0.101308465
000340 bb 87 06 3e f7 9f 9a be f8 67 1c 3d a0 a6 44 3e
       0.13137715 -0.30200168 0.03818509 0.19204187
000350 1c 45 d6 be 6f 64 65 be 75 37 b8 be d3 39 06 be
       -0.418496 -0.22401594 -0.3597981 -0.13107996
000360 3a ae cf be bc c9 86 be 34 0d 6b be 59 ca 0c bf
       -0.40562612 -0.26325786 -0.22954255 -0.5499626
000370 33 f5 bf bd d4 9f 57 be d5 3e 35 3e 02 01 f2 be
       -0.0937294 -0.21057063 0.1769975 -0.47266394
000380 4e b5 96 3c f2 4d 7a 3d 5c 5a 32 be 69 4a cd bd
       0.018397 0.06110949 -0.17417282 -0.10023958
000390 15 48 2c 3d 1c ba 34 3c d7 18 2f 3e 4c ae b7 be
       0.04206093 0.0110307 0.1709932 -0.35875165
0003a0 18 0c ca 3d a3 ba b0 3e 9f 13 e5 bd e8 08 90 3d
       0.09865588 0.34517393 -0.11185383 0.07032949
0003b0 0d 9e a8 3d 69 10 11 be 0c b1 82 be 27 5f 1c be
       0.08233271 -0.14166416 -0.255257 -0.15270673
0003c0 3f 8f 0c be 4f b3 32 3e c0 7d 33 be 9b 8c b5 3e
       -0.13726519 0.17451213 -0.17528439 0.35458836
0003d0 88 39 a4 3e 1d 80 47 3d 71 28 14 3e c4 b5 e3 3d
       0.32075143 0.048706163 0.14468552 0.111186534
0003e0 ae bc a8 be c2 74 02 3f 6d e5 1e 3e 3a 2e 9c 3e
       -0.3295645 0.5095941 0.15517206 0.30504018
0003f0 08 1c 21 3e 0e ff 2d 3e 41 3c 4c 3d 64 2a 1a 3e
       0.1573335 0.16991827 0.04986215 0.15055233

sequential/dense_1/MatMul f4 [10, 20]
000000 83 16 e3 be 75 87 31 be 6c 26 48 be a7 71 2e 3f
       -0.44353113 -0.17336829 -0.19545907 0.6814217
000010 60 bb a2 be 02 f9 16 be 7a 56 8f be ed cd dc be
       -0.3178358 -0.14743426 -0.27995664 -0.4312586
000020 f5 80 aa 3c c8 ef 80 3e 53 f2 92 3b c5 08 e4 bd
       0.020813445 0.2518294 0.0044844537 -0.11134485
000030 bd 3b 8a bd 7f 2a 98 be 04 d5 0b 3f 9f 8c a0 3e
       -0.067496754 -0.29719922 0.5462191 0.31357285
000040 c9 ce f6 3e 14 8f 15 be b9 d7 fd 3e 4a 11 eb 3e
       0.4820464 -0.14605361 0.49578646 0.45911628
000050 7b 5c 3e bc df a4 30 3f a8 25 c4 be d6 fd 16 bd
       -0.011618729 0.69001573 -0.3830998 -0.03686317
000060 94 e2 8f 3e b1 5a 49 3e a0 87 f0 be 4d 7f b2 3e
       0.28102553 0.19663502 -0.46978474 0.34862748
000070 ef 6e a6 bd 5f 50 31 3f 73 8c f7 3e 43 5c 94 3c
       -0.08126628 0.6926326 0.48349342 0.0181104
000080 33 12 73 3d 20 96 8b bd e0 ca 05 3e cd 0b 37 3f
       0.059343528 -0.068157434 0.13065672 0.7150238
000090 4d c8 af 3e cc d4 3a 3f 3f 01 39 3c f7 29 3a 3f
       0.34332505 0.7298095 0.011291801 0.72720283
0000a0 ca e4 05 bc 4b 50 ca 3d 11 d2 8e 3e 0f 59 95 3e
       -0.008172223 0.09878596 0.27894643 0.2916951
0000b0 87 2c 2d be 15 e9 dc be 25 b9 a5 be 1e 32 d4 be
       -0.16911517 -0.43146577 -0.32367817 -0.41444486
0000c0 43 29 41 be 9a 59 b3 3e 48 34 69 be 7c 27 e8 3e
       -0.18863396 0.35029298 -0.2277385 0.45342624
0000d0 3e fb 15 3e 99 a0 ea bd 00 61 1c 3f 4f f2 d1 3d
       0.14646623 -0.11456413 0.6108551 0.10251295
0000e0 46 0a e4 3c 0b 73 90 be 54 eb 72 be 3a 27 a1 3e
       0.02783693 -0.2821277 -0.23722583 0.3147524
0000f0 ad 0d 8d bd 3d 32 6f be f8 9a 06 be 74 4d 96 be
       -0.06887374 -0.23359008 -0.13145053 -0.29355967
000100 3e 9b f6 bd 01 fe d8 be 83 ac c9 3e 45 e1 1f be
       -0.12041329 -0.4238129 0.39389428 -0.15613277
000110 8e 87 a8 bd ad 73 80 3d 6c a7 d9 3d 74 04 18 3e
       -0.0822898 0.062720634 0.10627636 0.14845449
000120 70 54 81 bd c0 8c b2 be d3 83 c3 be 4e de 6b be
       -0.06314933 -0.3487301 -0.3818651 -0.23034021
000130 4f 76 e9 be 03 42 93 be 43 a2 6f 3e ee 01 3b be
       -0.45598075 -0.287613 0.23401742 -0.18262455
000140 1b ee b0 bd 77 ad 4c 3d a6 d9 17 3e 86 cb 1b be
       -0.08639165 0.049970116 0.1482912 -0.15214357
000150 60 a2 5a 3e 5c a9 1e 3f 83 3b b7 bd 3f b7 08 3f
       0.21351004 0.6197717 -0.08946898 0.5340461
000160 85 92 bb bd 5b 52 c1 3c cc 11 52 be 5a 55 20 be
       -0.09158806 0.02359884 -0.20514601 -0.15657559
000170 9c 5f 12 3f 16 3e 84 3d 52 81 6e 3e 3d 63 0b bf
       0.5717714 0.064571545 0.2329152 -0.544483
000180 bf 10 57 3e 78 45 88 be d4 a3 41 bf 66 29 35 3e
       0.21002482 -0.266155 -0.75640607 0.17691574
000190 75 45 f3 3e 9b b6 db 3e c2 78 91 3e c3 07 d3 bd
       0.4751393 0.42912754 0.28412443 -0.10304215
0001a0 b8 6f bf 3d 86 67 92 bd 2d c2 4b 3e 2f 19 67 bd
       0.093474805 -0.07148652 0.19898291 -0.0564205
0001b0 f6 fe 86 be 0d 18 49 be 48 e2 fb be 33 cf 09 3e
       -0.26366395 -0.19638081 -0.49196076 0.13457946
0001c0 60 c7 04 3f d5 3e b8 3d d4 cc fd bd c3 b3 4c be
       0.5186672 0.08996359 -0.123925835 -0.19990449
0001d0 d9 e7 07 bf e6 07 ae bd 15 d4 11 bf 56 e2 96 be
       -0.53088146 -0.084976 -0.56964236 -0.29469556
0001e0 90 ad 43 3f 56 ed 47 3e 1c 80 e2 3b 25 97 19 be
       0.7643671 0.1952413 0.0069122445 -0.14999063
0001f0 b7 a4 9a 3e 28 83 72 3e 94 f1 b8 bc 32 04 c7 bc
       0.30203792 0.23682845 -0.02257613 -0.024293993
000200 2b 4d b2 3e 59 10 f4 be c1 cf 01 bf 8a b6 f8 3d
       0.348245 -0.47668722 -0.5070763 0.121441916
000210 5f 05 b7 3e 8f c2 96 3e ce 3c 16 bd 48 80 0f 3d
       0.35746285 0.2944531 -0.03667908 0.035034448
000220 15 c8 06 bf 6b 58 ae bd 80 17 ac be 2d ad 1e bf
       -0.5264905 -0.08512958 -0.3361168 -0.61982995
000230 e2 74 45 3e d1 26 a2 be 01 e9 3e 3f 1a f2 2b be
       0.19282869 -0.3167024 0.74574286 -0.16791573
000240 99 18 b2 3e 85 0e 86 3d dc 85 3b 3f 3a b9 b1 be
       0.34784392 0.06545738 0.7325113 -0.3471163
000250 d1 76 86 be ce a9 17 bf b7 40 c5 be 06 dd f3 3e
       -0.26262525 -0.59243476 -0.38525936 0.47629565
000260 6f 0b d0 3e d9 1e ae 3d ac a5 bf be a2 97 01 3f
       0.40633723 0.085019775 -0.37431085 0.50622
000270 46 26 88 be 8f d9 fc 3e fb 68 6e be 7e 30 2a be
       -0.265917 0.49384734 -0.23282234 -0.16620061
000280 f0 ce 9b be 01 24 02 be 1f 63 7a 3e f9 68 c2 bd
       -0.30431318 -0.12709047 0.24451874 -0.09492678
000290 03 46 7c be eb e4 bb be 23 53 a4 3e 0b 33 c2 be
       -0.24636082 -0.36698088 0.32094678 -0.37929568
0002a0 8d 04 12 be 73 d2 90 3e 34 18 ae 3d 80 31 b1 3e
       -0.14259548 0.2828556 0.0850071 0.34608078
0002b0 e0 0a 9f 3e 04 1a a5 be 48 af 4b be f3 67 96 bd
       0.31062984 -0.3224641 -0.19891083 -0.073440455
0002c0 85 e3 19 3f 15 9c 80 3e 75 79 fc 3e 70 1e 57 3e
       0.6011279 0.2511908 0.49311414 0.21007705
0002d0 f5 34 46 be dd 02 e3 3e 29 48 e4 be 30 2b bc be
       -0.19356139 0.44338122 -0.44586304 -0.367517
0002e0 27 4e 67 3e 67 fe 75 3e 00 75 93 be f6 fc 1f 3e
       0.22588407 0.24022828 -0.288002 0.1562384
0002f0 8c 73 14 3f f7 ca a3 3d 1e df fa 3e 28 eb b1 be
       0.5798881 0.07997697 0.4899835 -0.34749722
000300 96 63 8a 3d 6b bb f9 3e 1d 0b fc be b6 92 6d 3d
       0.06757276 0.487758 -0.4922723 0.058001243
000310 d2 ce a3 3e 64 8a 8d bd 6b 75 97 3e 81 30 69 3e
       0.3199373 -0.069111615 0.2958177 0.22772409

sequential/dense_2/MatMul f4 [6, 10]
000000 73 bb 98 3e af 70 d8 be 01 6f 4c bf 30 6c 24 bf
       0.29830512 -0.4227347 -0.7985688 -0.6422758
000010 8f 23 fc 3e 23 a1 dc 3e de 14 1e 3f 55 07 58 3e
       0.4924588 0.43091688 0.6175059 0.21096547
000020 89 c9 ff be 39 a2 29 bf 79 6d 31 bf 08 19 d9 bd
       -0.49958447 -0.6626316 -0.69307667 -0.106004775
000030 fa 32 d1 3e 3e 0b 1a 3f ca 9f 29 3c 39 85 95 3e
       0.40859205 0.60173404 0.010353038 0.29203203
000040 ac 03 26 3d 60 da d3 3d c4 e5 17 3f 78 23 31 bf
       0.040530846 0.10344386 0.5933497 -0.69194746
000050 3c ee e1 bc c4 ed 44 3f 04 ff 22 bf 6f 06 35 bf
       -0.02757942 0.769253 -0.6367037 -0.7071294
000060 10 99 94 3c 5f 1f 55 bf 8c 22 73 bf 0d a2 ab be
       0.018139392 -0.83250993 -0.9497459 -0.33522072
000070 b2 d7 62 3e fd c1 eb 3e 2d 58 3e 3f 55 56 c7 3e
       0.22152594 0.4604644 0.74353296 0.38933054
000080 2d 1d 6d 3e 1d 12 81 be 73 e8 c1 bc 70 c2 28 bf
       0.23155661 -0.25209132 -0.02367041 -0.6592169
000090 90 61 4b bf d4 af 11 bf 07 5e 45 3f e9 7b 32 bf
       -0.79445744 -0.5690892 0.770966 -0.6972032
0000a0 7e e4 3c bf 59 55 11 3f e3 31 d3 be 2f 75 63 3e
       -0.7378615 0.56770855 -0.41248998 0.2221267
0000b0 50 22 49 bf e7 34 d2 bd 6f 16 10 3f 16 20 10 3e
       -0.7856798 -0.102639966 0.5628423 0.1407474
0000c0 35 de e0 be c0 db f2 3d fb fc 83 bd 34 d5 de 3d
       -0.4391953 0.1185832 -0.064447366 0.10880509
0000d0 c5 f4 0f bd c4 eb 80 3d 50 be 22 3f f7 a4 55 3d
       -0.03514554 0.06294969 0.63571644 0.052159276
0000e0 b0 56 10 3f c5 53 0f bf 26 7a 9d be d2 c3 39 3e
       0.56382275 -0.559872 -0.30757254 0.18141106
